multiagent-particle-envs/scripted_agent_ckpt/simple_tag_n6_train_prey/adversary_agents_best.ckpt (torch_old, 825949 bytes, 50 tensors)

weight f4 [128, 26]
000000 d9 86 e5 3e 60 e2 2b be 44 2a 35 3f f2 25 a3 be
       0.44829443 -0.16785574 0.7076762 -0.31864887
000010 aa b1 a7 3c bb 59 a8 3e d2 83 70 be 2d 30 bf 3e
       0.020470459 0.3288096 -0.23487785 0.37341443
000020 00 a1 99 be 2d d9 6f 3e a6 73 31 3e 02 1c 70 be
       -0.30005646 0.2342269 0.17329273 -0.23448184
000030 9b b5 bd be 18 ea 04 be ba 57 dc bd aa 1b f3 bd
       -0.37052616 -0.12979925 -0.1075892 -0.11870511
000040 2b fb 60 be 15 b7 0d 3e 83 6d 8d be 26 e6 8d 3d
       -0.21970813 0.13839372 -0.27622613 0.06928663
000050 b2 55 28 3e ee 08 23 3e 71 2d ed 3e d6 96 5f 3d
       0.1643894 0.15921375 0.46323732 0.054587208
000060 e1 ff 8e bc 37 1b 74 3e c4 db d2 3e 93 ba 27 3f
       -0.017455997 0.23838507 0.41183293 0.65519065
000070 2a 7c 01 3f a4 cc 0d 3d 84 86 50 be 5c 25 ca 3d
       0.50580084 0.03461899 -0.20363814 0.09870407
000080 eb 21 41 3e 07 be e1 3e cc f5 5c 3e 73 aa 3a 3d
       0.18860595 0.44090292 0.21578139 0.04557271
000090 f4 cd 6e be a6 66 ab 3e 5d e5 80 be 72 87 3b 3c
       -0.23320752 0.33476752 -0.2517499 0.011445867
0000a0 51 05 f3 bd 9e 08 ad be 19 ad 1f be eb 8a c3 3e
       -0.118662484 -0.33795637 -0.15593375 0.38191923
0000b0 80 cd 87 be b1 ab 5e bd d4 10 6f bd d1 cd 09 be
       -0.26523972 -0.054362956 -0.058365658 -0.13457419
0000c0 52 57 b2 3e 99 91 c2 be 56 bf 53 bc bb 6b 0f 3f
       0.34832245 -0.38001707 -0.012924036 0.5602376
0000d0 46 e6 ac 3d 35 77 97 3e 0e 01 95 bd 31 88 6d be
       0.08442359 0.29583135 -0.07275592 -0.23196484
0000e0 ff 88 41 3c ea 6a 9d 3d 66 78 c2 bd e0 72 43 3e
       0.011812448 0.07686408 -0.094956204 0.1908679
0000f0 d1 db cd 3d 65 d5 b4 bd 41 0f 81 3d 50 76 94 3e
       0.10051692 -0.08829764 0.063017376 0.28996515
000100 cf 98 20 3e 76 75 51 be 4e f4 28 bd 9a 04 92 3d
       0.15683292 -0.20454964 -0.041248612 0.07129784
000110 ad b3 a3 bc de e9 d1 3e 8c d9 26 3c fb c5 7e 3e
       -0.019983137 0.4099874 0.010183703 0.24880211
000120 e3 64 f7 3d 7b 35 9a 3e 3d 2e d0 3d ce 3d 1f be
       0.120797895 0.30118927 0.10165069 -0.1555092
000130 de 78 f0 3d 08 13 29 be d9 51 78 be 9f eb f0 3e
       0.117418036 -0.16511166 -0.24249972 0.47054765
000140 8f 8f aa 3e 5a 94 f0 be b6 71 8b be b7 f7 d8 3d
       0.33312652 -0.46988183 -0.27235192 0.10594123
000150 43 e4 b3 be fc c6 aa 3e 36 96 81 be 6a 84 ac 3e
       -0.35135087 0.33354938 -0.25309914 0.33694774
000160 2a 55 2b 3e 45 7d 6e 3e 34 31 e3 3e 0b 6f b7 be
       0.16731706 0.23289974 0.44373477 -0.35826907
000170 e0 f2 b5 be dd 3b af bd 51 b4 1d 3d 0b 4b f8 be
       -0.3553686 -0.0855634 0.03850204 -0.48494753
000180 a8 22 8a 3e ea 45 d4 be 50 bc 77 bd d4 a5 6e be
       0.26979566 -0.4145959 -0.060482323 -0.23305446
000190 9b 5b e0 be 3b 6f b9 be 83 e0 98 be c9 f1 8f 3d
       -0.4381989 -0.36217675 -0.2985879 0.07028539
0001a0 dc aa f1 3c eb d0 93 3e 4b d1 14 bd f6 20 b8 3e
       0.029500417 0.2887033 -0.03633241 0.35962647
0001b0 f7 7e 24 3e 6a 5a c7 be 58 4a 8b bd 23 be 88 be
       0.16064058 -0.38936168 -0.06801289 -0.26707563
0001c0 dc 83 14 be 93 99 0d 3e b7 b7 f4 3d 43 e8 8c 3e
       -0.14503425 0.13828115 0.11949103 0.27520952
0001d0 ab 4f 7c bd 6f 22 a5 3e c7 03 ad bd 21 95 a0 3e
       -0.061599415 0.32252833 -0.08447986 0.31363776
0001e0 5b e7 18 be fd 5e 9b 3b c9 27 60 3e 6f 3b c2 3d
       -0.14932005 0.004741548 0.21890177 0.09483992
0001f0 aa a7 b4 bd 70 35 ab 3e 09 c8 45 be 2a 8e da 3d
       -0.08821042 0.33439207 -0.19314589 0.10671647
000200 e2 2c 08 3f 84 e4 75 be 41 97 74 3e 7e ba 87 be
       0.53193486 -0.24012953 0.23885824 -0.2650947
000210 b1 e0 4e 3e 23 01 1b 3f 74 f1 8e bd 22 39 29 3e
       0.202029 0.6054861 -0.06979647 0.165257
000220 08 b7 d8 bb 8a 43 06 bd 27 41 99 bd cc 48 6c be
       -0.006613616 -0.032779254 -0.0748313 -0.23074645
000230 0f 2b 63 be de 99 9a 3d 9e 7c 99 bd df 59 d5 3e
       -0.22184394 0.07548879 -0.07494472 0.4167013
000240 dd b6 86 be 84 dc 01 bf 92 84 b6 bd ea af 6e bd
       -0.2631139 -0.50727105 -0.089120045 -0.058273233
000250 0b d4 c9 be 21 c8 c8 3d 3d c8 e5 3d 13 da a2 3d
       -0.39419588 0.098037966 0.11219833 0.079517506
000260 05 5c 3a bf dd da 0c 3f 8b 18 01 bf 01 b6 3e bf
       -0.7279666 0.5502146 -0.50428075 -0.74496466
000270 46 3b 3b bc b8 73 08 3f b4 d6 56 bd db 9d 3d 3f
       -0.011427706 0.5330157 -0.05245085 0.74068993
000280 7b fb 0d bf 42 e5 bf bd 8c 5f f3 bd e8 0f d7 be
       -0.55461854 -0.09369899 -0.118834585 -0.42004323
000290 9f 67 00 3e 95 be d5 be f3 48 a0 be 69 6d 1d 3e
       0.12539528 -0.41746965 -0.31305656 0.15373768
0002a0 b7 cb a4 bd 4e 3d 50 3d 3c 98 a2 be d5 86 d3 bd
       -0.08046668 0.050839715 -0.3175677 -0.103284515
0002b0 79 6c ac be 21 3c a6 3d 88 c3 46 bd ec e3 50 be
       -0.33676508 0.081169374 -0.048526317 -0.20399445
0002c0 37 e1 fc 3c ae 23 01 3d e7 e9 ee 3e e8 e8 05 3f
       0.03086911 0.031528167 0.46662828 0.5230851
0002d0 51 c7 fc bd 2c 3b 83 3d e4 cd 56 3e 5f 7d 22 bf
       -0.12342704 0.064077705 0.20976979 -0.6347255
0002e0 8d b6 ae 3e 7e d8 a4 be a9 1b 07 be 4a 3e 6c 3c
       0.3412365 -0.3219642 -0.13194145 0.014419148
0002f0 d4 65 02 bc 1f 30 14 3e cf f6 3e be df 91 81 3e
       -0.007958848 0.14471482 -0.18648838 0.25306603
000300 1c 38 f3 be 8a e3 e3 be e9 25 6a be 10 ea 0e 3d
       -0.47503746 -0.44509536 -0.22866024 0.03489119
000310 22 54 80 3d 40 9a 7f 3d f9 53 8c be fe 3b db 3d
       0.06266047 0.062402964 -0.27407816 0.10704802
000320 ee 0d 1b be da 36 f4 bd 38 31 b0 3e c0 59 63 be
       -0.15142033 -0.119245246 0.3441255 -0.22202206
000330 ad 4a da 3e 91 bd e4 3d 01 09 e6 3d 5d 2e 83 bd
       0.42635098 0.111689694 0.11232186 -0.064053275
000340 1b 8f 7c be 4b e5 a1 3e 73 8e 4b bd ad 8f 02 bd
       -0.24663965 0.3162025 -0.049696397 -0.0318753
000350 28 61 8a 3d 4d 74 bf 3e 71 b6 07 be e7 c2 9a 3e
       0.06756812 0.37393418 -0.1325319 0.30226824
000360 d9 b6 4c 3e 0e d3 93 3e 12 b1 7c bc 4d 30 d0 3d
       0.19991626 0.2887196 -0.015423076 0.10165463
000370 0f 7d 9d 3d 95 8d a8 be b0 d2 6a bd d2 2e 73 be
       0.07689869 -0.3292052 -0.057329834 -0.2374833
000380 b3 e2 d7 bd 13 ed 72 bd 2c af bf be ed fa 08 3d
       -0.10541286 -0.059308123 -0.37438333 0.033442426
000390 63 64 71 be 2b 1f 98 be ac df d0 bd 57 f3 12 3d
       -0.2357345 -0.2971128 -0.10198912 0.0358766
0003a0 c6 f9 8a 3e 8b 9b 91 3f 87 9f 7a 3d b0 f7 02 be
       0.27143687 1.1375593 0.061187293 -0.12789798
0003b0 84 46 55 be b4 b5 a3 bd ab 02 8b 3e e8 2c 9c 3d
       -0.20827681 -0.079936415 0.27150473 0.07625753
0003c0 55 6f 89 3e e2 12 b7 3d 6a 35 2a 3c 95 54 20 bc
       0.26842752 0.089391485 0.0103887115 -0.009785791
0003d0 4f a4 95 3e d6 07 6e 3e ad d8 11 3c c4 74 75 3d
       0.2922692 0.23245177 0.008901757 0.05992581
0003e0 f2 c2 46 3e 30 60 71 3e 52 78 0b 3d db 7f ee bb
       0.19410303 0.23571849 0.034050293 -0.007278425
0003f0 37 88 9a 3e 15 be 3f 3e b7 e0 f5 3d 96 c0 b7 3d
       0.3018205 0.18724854 0.120057516 0.0897228

bias f4 [128]
000000 3e 4d 88 be a5 44 50 3f 96 ea b2 bc 53 81 47 bd
       -0.2662143 0.81354743 -0.021840375 -0.048707318
000010 da d0 10 be 6a ff 49 be ba e8 5d be 20 23 47 3e
       -0.1414217 -0.19726339 -0.2167081 0.19446993
000020 65 92 04 bf d9 81 90 bd 3e 37 db 3d d0 19 c4 bd
       -0.5178588 -0.070560165 0.10703896 -0.09575236
000030 96 1d b4 3d 86 9b 8e be b6 74 19 3e af 57 26 bd
       0.087947056 -0.2785303 0.14985928 -0.040610965
000040 c5 4a f2 3d 21 e0 0d bf a3 1d d2 bd a6 e4 fe 3e
       0.118306674 -0.5542012 -0.10259559 0.4978382
000050 df d3 06 3e 27 f2 b3 3d 49 59 b0 bd c3 2c 53 be
       0.1316676 0.08786421 -0.0861078 -0.20622544
000060 38 c8 1f bd bd 6f 1d 3e a0 84 67 bc 40 43 48 3e
       -0.039009303 0.15374656 -0.014130741 0.19556904
000070 5d b6 6e bd dd e2 6b bd da a0 c5 be 32 db 07 bf
       -0.058279384 -0.0575894 -0.38599283 -0.5306884
000080 05 e4 37 bf 56 e4 12 be 55 d5 f8 be 79 c3 58 3e
       -0.71832305 -0.14344916 -0.4860026 0.21168317
000090 b4 96 b3 be 61 66 1b 3e 16 60 b7 3d 89 b6 ad be
       -0.35075915 0.15175773 0.08953874 -0.33928326
0000a0 5a af 2a be 00 33 04 3f 33 8c 1a bd e3 cb 8a be
       -0.16668454 0.5164032 -0.03773136 -0.27108678
0000b0 b9 83 db bd 80 5a 14 3f 14 9e 40 3f 83 54 89 3e
       -0.107184835 0.5795059 0.7524121 0.2682229
0000c0 98 81 cd be 27 97 b9 be 8b 73 d5 be 17 84 c9 be
       -0.40137935 -0.36248133 -0.41689715 -0.3935859
0000d0 0e 14 e8 be 1b 10 2d 3e d8 c3 bf 3e ca 43 a1 3e
       -0.453278 0.16900675 0.37454104 0.3149703
0000e0 05 ac 24 bd 81 93 10 3e e1 3f a9 3e f2 5d 13 3f
       -0.040203113 0.14118768 0.33056548 0.57565224
0000f0 68 12 70 bf 65 88 32 bf 74 45 c4 bc e0 08 da 3e
       -0.93778086 -0.6973937 -0.0239589 0.42584896
000100 1e 5b 43 3c 3a f4 a8 3e 8e 88 4a be 36 a9 26 3f
       0.0119235795 0.3299883 -0.19778654 0.65101945
000110 d1 9a b8 bb b3 98 c3 be 79 1d 5f be cf 37 db 3d
       -0.00563369 -0.38202438 -0.21788587 0.10704004
000120 6d b9 3a 3f 98 4e 9e be 93 90 fb be 26 6d 15 be
       0.7293919 -0.30919337 -0.4913374 -0.14592418
000130 f7 af 4f 3f 78 c1 90 3e e6 ff 19 bb 38 8f 4b be
       0.81127876 0.28272605 -0.0023498475 -0.19878852
000140 ee 66 88 3e 24 18 ba 3d 56 dd 8a bd f1 5d ed 3e
       0.2664103 0.09086636 -0.06780498 0.46360734
000150 cf 10 e3 3c a0 f2 ac be ec 42 ae bd b9 49 53 be
       0.027717976 -0.33778858 -0.08508858 -0.20633592
000160 f1 09 08 3f 77 d1 0b be 20 eb 3f bf a4 04 b4 3e
       0.5314017 -0.13654123 -0.7496815 0.3515979
000170 64 b4 25 be d6 35 6c 3c e9 ba d2 3e 8a 31 a4 3e
       -0.16182095 0.014417132 0.41158226 0.32069045
000180 79 ff 8b 3d 1b 2e 93 3e 8a f4 85 be 8e a3 37 3c
       0.06835837 0.28746113 -0.2616313 0.011208428
000190 f8 cb f5 3d cc bf f5 3d 9a d5 b8 3e b4 54 98 be
       0.120017946 0.11999473 0.36100465 -0.29752123
0001a0 ae de 84 3e 41 ed f0 3c 4a 8c 6d 3f 3a 5e 4b 3c
       0.2595114 0.029410006 0.9279219 0.012412602
0001b0 81 69 91 3e c2 59 06 bf 46 45 4e 3e 46 72 b5 3e
       0.28400806 -0.5248071 0.20143613 0.35438746
0001c0 3f 1f fa bd 3c 67 35 bf 33 fd 8c 3c c6 26 3f be
       -0.12212991 -0.7086065 0.017210579 -0.18667135
0001d0 91 f1 f9 3e 79 38 b9 bd ae f8 6b 3e a3 bd 2f be
       0.48817113 -0.090439744 0.23044083 -0.17162184
0001e0 81 82 40 be e4 4d 6f 3e a4 c8 cf bd fa b6 1a bf
       -0.18799783 0.23369557 -0.10145691 -0.6043545
0001f0 30 43 4e 3e 65 e3 ae be fc c7 96 3d 55 77 3c 3e
       0.20142817 -0.34157863 0.07362363 0.18404897

weight f4 [128, 128]
000000 d6 4a ab bd 7d e2 ec bd bb 91 4f bc 73 b8 96 bd
       -0.08363883 -0.11566637 -0.012669022 -0.073594
000010 4c a9 d0 bd fa a1 ac bd 68 07 df bd ee cc d5 3c
       -0.10188541 -0.08429332 -0.108900845 0.026098695
000020 3a c6 81 bd ff 26 51 3d e0 21 1d bd 39 bc a1 bd
       -0.06336637 0.05106258 -0.038362384 -0.07897229
000030 6b a7 dc bd c5 6b cf bd eb b2 16 3d ce be 1d bd
       -0.1077412 -0.10127977 0.036791723 -0.038512044
000040 d7 cd e6 bd de 4c a5 3c bc b9 eb bd 15 72 cb 3c
       -0.112697296 0.020178255 -0.115100354 0.024834672
000050 d0 51 d1 bd 96 07 5d 3b c7 e9 d7 bd fa fd e8 bd
       -0.102206826 0.0033726445 -0.10542636 -0.11376567
000060 72 2b 64 bc 00 87 16 bc 28 e6 08 bc 03 f3 86 bc
       -0.013926374 -0.00918746 -0.008355655 -0.016473299
000070 c9 be 82 3d 73 69 98 bd b2 24 25 3d 52 64 16 bd
       0.06384046 -0.07441988 0.0403182 -0.036716767
000080 49 37 87 bd 5f 61 1d bd f8 74 d8 bd 81 00 01 3d
       -0.06602342 -0.03842294 -0.10569185 0.03149462
000090 87 92 0b 3d 3d 26 b1 3b c9 c5 23 3c 95 09 e5 bd
       0.034075286 0.0054061697 0.009995886 -0.11183468
0000a0 a1 e6 b4 bc d4 8f d7 3c 0b 54 eb bd 02 2b d7 3b
       -0.022082629 0.0263137 -0.11490639 0.006566406
0000b0 ed c1 9d bd 3e 6b f2 bd aa b3 7a bd c7 b5 97 bd
       -0.07703004 -0.11836861 -0.061206497 -0.07407718
0000c0 af 4a 95 bd bb f6 5f bb e5 85 b7 bc 67 c4 29 3d
       -0.072896354 -0.0034174162 -0.022402713 0.04144707
0000d0 aa 7f 01 3d 58 ac dd bc 68 45 8b bc 5c 5d f6 bd
       0.03161589 -0.027059719 -0.017000869 -0.12029526
0000e0 8d cb 0e bc 38 9e 8a bd 66 66 fd bd 0c 98 94 bc
       -0.0087155225 -0.06768459 -0.123730466 -0.018138908
0000f0 a1 75 aa 3b 56 74 86 3d 4a bd 4a 3d 5e 07 d2 bc
       0.0052020107 0.06565158 0.049496926 -0.025638279
000100 85 30 05 be 6a 6e fc 3c b3 0c a3 bd 17 d7 ac bd
       -0.1300679 0.030814368 -0.079614066 -0.08439463
000110 5c bb 25 bd fd 95 d1 3c dc ae 01 bc eb ee c3 bb
       -0.040461883 0.025584215 -0.007915225 -0.005979409
000120 7e b3 bb bb 95 2d 8b 3a fd a4 9d bd 50 71 96 bd
       -0.0057281842 0.0010618443 -0.07697485 -0.073458314
000130 a9 a0 7b 3c 3f 2f 8c bd 26 62 09 3d d4 c4 4f bd
       0.015358129 -0.06844949 0.033540867 -0.05072482
000140 54 d0 16 bc 44 23 d5 bd b9 54 55 bd 7a 58 d3 3c
       -0.009204943 -0.10407117 -0.05208275 0.025799025
000150 eb 76 d2 bd a1 80 fb bc 9f c2 85 3c 68 71 dd bc
       -0.10276588 -0.030700983 0.016328154 -0.027031615
000160 7b ac 5f bd 7b 1f a6 bd ad 9d ac bc 61 5d bf bd
       -0.05460785 -0.08111473 -0.02107128 -0.093439825
000170 7d 1e 6e bd aa 42 82 3b ff 37 b7 bd 03 35 41 bc
       -0.058134545 0.003975232 -0.08946227 -0.011792424
000180 ab 10 c1 bd f2 cd c8 bd fc 95 06 bd 52 68 91 b9
       -0.09427007 -0.09804906 -0.03285788 -0.0002773428
000190 77 d2 a8 bd 6e 44 02 3d ae 9e 5b 3d f3 90 3f bd
       -0.08243268 0.03180354 0.053618126 -0.046769094
0001a0 6e 5f 16 bb e3 e6 01 bd da c6 70 bd 55 1b 08 3c
       -0.0022945064 -0.03171433 -0.05878339 0.008307298
0001b0 d1 59 f4 bc 42 64 9d 3b a2 39 41 bd ad c1 2c bd
       -0.029827984 0.0048032114 -0.047174104 -0.04217689
0001c0 1a 83 a5 bc bb 32 27 bd e2 97 bf 3c 56 06 cd bd
       -0.020204116 -0.040819865 0.023387853 -0.10010974
0001d0 87 08 16 3c b9 c6 8c ba 5c f1 81 bd de a9 8a bd
       0.0091573065 -0.0010740376 -0.06344864 -0.06770681
0001e0 ea 97 f8 bc 5f cc 3f bd 43 4a 2c 3d b1 eb 90 bd
       -0.030345876 -0.046825763 0.04206301 -0.070762046
0001f0 cd aa 78 bd 67 94 b2 bd d2 4c 00 bc e0 db 79 3c
       -0.060709763 -0.08719712 -0.007830815 0.015250176
000200 c9 b6 03 be d8 94 4b 3c f5 d6 00 be c2 a2 97 bd
       -0.12862696 0.012425624 -0.12582 -0.074040905
000210 a0 7d cd 3c 33 b9 cc 3c f2 0c 68 bd e7 43 a6 3c
       0.025084317 0.024990654 -0.05665297 0.02029605
000220 ce 7a be bd ca 17 00 be 3d c2 44 bc e0 5f 00 be
       -0.09300767 -0.12509075 -0.012009201 -0.12536573
000230 7c 34 c5 3c 7e bc 57 bc fe 8f 61 3d dd 7a ca bc
       0.024072878 -0.013167499 0.055068962 -0.024716789
000240 8e 0f 81 3c a6 9a bb bb 39 04 c7 bc 22 e4 19 bd
       0.015754487 -0.0057252226 -0.024294006 -0.03757108
000250 8a 57 e7 3c 3a 2d 18 3d 67 83 42 39 ad e8 01 be
       0.028239984 0.037152506 0.00018550233 -0.12686415
000260 79 db 6e 3c 30 1a 94 bc 2a 1b aa 3d ad 83 f1 bd
       0.014578694 -0.018078893 0.083059624 -0.11792693
000270 a1 05 b0 bd 6a c2 f2 bc c2 d6 35 bc 8b cc 26 3d
       -0.08594824 -0.02963372 -0.0110985655 0.04072241
000280 05 34 c4 bc 0e 43 17 be bf b0 a2 bd 95 27 3d bd
       -0.023950586 -0.14771673 -0.07943868 -0.046180326
000290 a0 1a fc bd f8 e2 66 3d 2b d7 45 bb 99 52 86 3b
       -0.12309766 0.056368798 -0.0030188065 0.004099202
0002a0 76 93 d2 3c 13 98 46 3d 2c c5 c8 bc ab 08 34 bd
       0.02570508 0.048484873 -0.024508081 -0.04395358
0002b0 cf f0 41 3c 03 f4 ee 3b 26 e9 29 bd af 8d b0 bd
       0.011837198 0.007292272 -0.041482113 -0.08620774
0002c0 fe d7 4c bd c3 3b a1 bc 5b f1 b7 bd 8a 3c 86 bd
       -0.050010674 -0.019681817 -0.08981582 -0.06554516
0002d0 dd b1 94 bd 4f 5f 99 bd 87 de 2d 3d ec 69 08 3d
       -0.07260487 -0.07488882 0.042448547 0.03330414
0002e0 6c 96 84 bc b4 3e 60 3d 1a 1c 0a bd f3 9c 3b bd
       -0.016185008 0.0547473 -0.033718206 -0.045803975
0002f0 55 16 26 bd 8d 64 25 be 1d 9f 4c 3c 3c d9 bf 3c
       -0.04054864 -0.16151638 0.012489107 0.023419015
000300 42 1f 2a bd 2f f5 69 3d b3 2c b4 3c 56 8a 8d bd
       -0.041533716 0.05711859 0.02199397 -0.06911151
000310 4d a2 a9 bd f5 1d 31 3d 18 b9 d5 3c f7 7c c7 bd
       -0.082829095 0.04324146 0.026089236 -0.09740632
000320 e0 dd 3e 3d 0e 03 11 be 23 35 aa 3c a2 4b 09 bd
       0.046598315 -0.14161322 0.02077729 -0.033519395
000330 52 e9 1d be 5a ce 5d bd 09 49 ab bd d6 f9 79 3c
       -0.15421036 -0.05415187 -0.0836354 0.015257319
000340 03 e0 3a bd 4a 37 6b 3d 48 d6 87 bd 31 89 26 bd
       -0.04562379 0.057425775 -0.06632668 -0.04065818
000350 67 0b 41 3c 7a 80 4e 3b 49 68 30 bc b0 b2 17 bc
       0.011782504 0.0031509683 -0.010767051 -0.009258911
000360 8f 62 13 3d d1 c8 fc 3b 8b 3e 38 3d 4f 7f cd 3c
       0.035982665 0.007714369 0.04498152 0.02508512
000370 e1 40 d9 bc 53 a7 f9 bc 21 0c 04 3d 3a b4 91 bd
       -0.026520194 -0.030475294 0.03223813 -0.071144536
000380 60 1e 27 bc 1f 5c 0a bc e9 16 af 3d 4f 34 1b bd
       -0.010200113 -0.008444815 0.08549292 -0.037891682
000390 b4 d3 d7 bc 8d e0 61 bd ae 2c 93 bc 4e 4a db bc
       -0.026346065 -0.05514579 -0.01796564 -0.02676883
0003a0 d0 71 8e 3b df 87 54 bc f3 63 b1 3c 23 6a 58 bb
       0.0043470636 -0.012971847 0.021654105 -0.0033022247
0003b0 d6 ea b6 bc a6 92 ac 3b 60 9e 61 bb 9f d7 09 be
       -0.022328775 0.0052665053 -0.0034426674 -0.13461159
0003c0 fc ad 6c bd ed ea 64 bd 6c 44 25 bd 89 7b e2 bd
       -0.057783112 -0.055888105 -0.040348455 -0.11058719
0003d0 cf 7f 71 bd 56 81 b3 bd f1 dd 8a bd c5 9b 0d be
       -0.05895978 -0.08764903 -0.06780613 -0.13828953
0003e0 05 80 23 bd 8f dd 0f bd ec 38 53 3c 3f cd 34 be
       -0.03991701 -0.035123404 0.012891989 -0.1765642
0003f0 75 1c 89 bd ac 21 70 3b 98 fe a8 bd 38 8f 7b bd
       -0.06694881 0.0036641164 -0.08251685 -0.06141588

bias f4 [128]
000000 98 fe d0 bd b2 7a 89 bc 3a 7d c8 3c c6 ee 8d bb
       -0.1020481 -0.016782138 0.024473775 -0.0043314425
000010 c9 43 37 3c a4 3b c9 bc 0f ec dc 3d e8 5e 59 3f
       0.011185595 -0.024564572 0.10787212 0.8491044
000020 51 4e 62 bd f2 68 9d bd f4 54 ee 3d 11 ca 43 3e
       -0.05525047 -0.07686032 0.11637297 0.19120051
000030 51 cd 9a 3e a6 84 44 bd a3 fc fa bd 05 ef 5b 3d
       0.3023477 -0.047978066 -0.12255218 0.053694744
000040 6b 7d 9e be b7 7b 05 3e 26 ee a1 3e 49 ea d8 bd
       -0.3095506 0.13035475 0.31627005 -0.10591561
000050 58 6b d8 bc 7e 86 f6 3d b6 0d df 3e 6a a0 a5 3b
       -0.026418373 0.12037371 0.43565148 0.0050545232
000060 82 67 0d be 26 7c 27 3e d6 0f d8 bd 80 b2 4c bd
       -0.13809016 0.16355953 -0.105498955 -0.04997492
000070 9d 75 99 3e 1b 4e 2f bd 60 33 80 3e d7 9a 20 3d
       0.29972544 -0.042799097 0.25039196 0.039210167
000080 44 01 e6 bd 7a a4 e3 bd f4 74 99 3e a9 1f 52 3e
       -0.1123071 -0.11115356 0.2997204 0.2051989
000090 f3 b4 08 3e a9 2f 63 bc 64 b8 29 3e cf 09 44 bd
       0.13350277 -0.013866344 0.16574246 -0.047860917
0000a0 92 51 bb bd 19 fc 12 3e 6e c3 0a be 5a 28 cc bd
       -0.09146418 0.1435398 -0.13551113 -0.09968634
0000b0 4f 80 5d bd 0c f1 70 bd ca 96 80 3e a2 83 6d be
       -0.054077443 -0.05882363 0.25115043 -0.23194745
0000c0 95 e5 9b 3e b5 28 c0 3e ea df ad 3e 31 55 d0 3e
       0.30448595 0.37531057 0.33959895 0.40689996
0000d0 25 8f 05 3c eb 29 be 3e c6 c2 16 bd 47 4d 99 bb
       0.008151804 0.37141356 -0.036806844 -0.0046784016
0000e0 4c 9f 57 3e 08 d3 06 3e c1 e1 3d bd 14 2f c7 3d
       0.2105686 0.1316644 -0.046357874 0.09725776
0000f0 9a 58 0f be 24 2b f5 bd 1b 37 7d 3d 7e b9 b6 bd
       -0.13998643 -0.11971119 0.06182013 -0.089220986
000100 91 df b9 3d d0 b3 d2 3c 84 06 e4 bd ba a2 0e 3e
       0.09075845 0.025720507 -0.11134055 0.13929263
000110 13 24 7f bc 5d 8f 15 be 1f 66 09 be c1 e6 03 3e
       -0.015572566 -0.1460547 -0.13417862 0.12880994
000120 b9 e8 d3 bd d1 3f f9 3c ce 68 59 3d 60 43 d6 bb
       -0.10347123 0.030425938 0.053078465 -0.0065387934
000130 c1 f9 86 bd d0 db 24 be fe 83 aa 3e b6 60 ba 3e
       -0.065906055 -0.16099477 0.33303827 0.3640191
000140 b4 21 d8 bc 28 73 c5 bd 45 34 ca 3e 22 69 b3 bc
       -0.026383258 -0.09641105 0.39493003 -0.021900717
000150 ff 3f 29 3e af 7a 90 bd 7e 94 13 3d 23 f2 25 bd
       0.16528319 -0.0705465 0.036030285 -0.040514123
000160 cd e6 95 be 37 67 ba bc cb 00 02 3f b2 4d e7 bd
       -0.2927765 -0.022754295 0.5078246 -0.11294116
000170 17 b3 33 3f 0c df 1e 3d c7 84 97 bd 81 df 79 bb
       0.70195144 0.038786933 -0.07398372 -0.0038127603
000180 ea bd 28 3e 8a 1d b6 bd 6b 3b 01 be 0c a3 00 be
       0.16478696 -0.08892353 -0.12620322 -0.12562197
000190 4d 7b db bd 0d b9 30 3e b7 cd ad 3e 57 fd ef bd
       -0.10716877 0.17258091 0.3394601 -0.117182426
0001a0 b9 c6 07 3f 0c 02 15 be db 33 fd bd 51 ee 8c bd
       0.530376 -0.14551562 -0.12363406 -0.06881393
0001b0 87 51 e6 bd b5 6b 39 bd 8d 61 99 3d 85 c6 a4 3e
       -0.11246019 -0.045268733 0.074893095 0.32182708
0001c0 80 ab 5a 3d 6b 98 df bc 46 9b 49 3f a2 8f 87 bc
       0.05338621 -0.027294358 0.78752553 -0.016547982
0001d0 ab d1 a2 bd c6 0b fc 3d 4e 4f 63 3e 1a 4d 86 bd
       -0.07950147 0.12306933 0.22198221 -0.06557675
0001e0 3a 42 9b 3c b5 62 29 be 2f 24 a0 bd 68 ba b4 bd
       0.018952478 -0.1654156 -0.078194015 -0.08824617
0001f0 ec 68 f1 bb 19 4b 07 3f a9 9a 35 bd a4 86 83 3e
       -0.007367244 0.52848965 -0.04433695 0.2568866

weight f4 [5, 128]
000000 43 8b 3d bc ed 68 88 3c 29 77 55 be d6 e6 42 3d
       -0.011568847 0.016651595 -0.20846237 0.047583424
000010 00 ae 41 3e b2 b7 b6 3c 26 e3 0f be bb f5 d5 be
       0.18914032 0.02230439 -0.14051494 -0.4178904
000020 0f 53 b9 3c 1b 2f c4 bc b4 56 75 3e 4e 3d 18 3d
       0.022622613 -0.023948243 0.23958856 0.03716784
000030 42 c7 0d be fb 80 94 3c e8 9d 31 bd 78 7a 16 bc
       -0.13845542 0.018127909 -0.04336348 -0.009184472
000040 a7 11 d7 3d b7 e2 e6 bd fb e3 20 3e 6a c4 d4 3c
       0.10501414 -0.11273711 0.15711968 0.025972564
000050 40 4f a4 3c c5 ce 6e 3d 2f 6e c0 be dd 9d 80 3d
       0.02005732 0.05830266 -0.37584063 0.0628011
000060 a1 23 fc 3c 62 39 6c 3e fc e3 0b 3e 8c e1 f7 3c
       0.030778708 0.23068765 0.13661188 0.030258916
000070 9d d7 1b 3e 8e 41 70 bd ad e2 54 be 04 00 c7 3d
       0.15218969 -0.058656268 -0.20789595 0.097168
000080 78 35 73 3c d5 f4 05 3d 23 fb 0e bf ce b7 20 3e
       0.014844291 0.032704193 -0.55851954 0.15695116
000090 33 a4 14 3e 90 38 95 3c d7 c8 31 bd 63 67 19 bc
       0.14515762 0.018215448 -0.043404426 -0.009363028
0000a0 fd 25 dd bd ba 01 f4 3e e6 db 23 be 24 20 b4 3c
       -0.10798261 0.47657567 -0.16001853 0.021987982
0000b0 03 6c e1 3c eb 04 be 3c cb 34 41 bd 36 a3 62 bd
       0.027517324 0.023195704 -0.047169488 -0.05533143
0000c0 75 31 bf bd c2 bc be 3d be 97 07 3f 9e 9d 8d be
       -0.09335605 0.093133464 0.52965915 -0.27659315
0000d0 a6 bf 2f 3e d8 b4 a2 3d cd a3 2e bd 06 8d 55 3e
       0.17162952 0.079446495 -0.04263668 0.20854577
0000e0 cc 9f c4 be cf 72 03 be 79 99 22 3d 3a df 4a bd
       -0.38403165 -0.12836765 0.039697144 -0.04952929
0000f0 6c cb 2f bd 31 93 c0 3c f3 2c 80 3e 3c 51 74 bd
       -0.042918608 0.023507686 0.25034294 -0.059647784
000100 36 b6 2b 3d 6e 34 be 3c 60 e4 2d 3c 15 67 ab 3e
       0.041921817 0.02321836 0.010613531 0.33477083
000110 1c f5 04 3e 7d 61 2d bc 19 2f 1a 3d 77 d7 97 3b
       0.12984127 -0.010582325 0.037642572 0.0046338397
000120 9f c7 d2 3c fc d5 1e 3e c7 f3 c7 be 06 53 a7 bd
       0.025729952 0.15511316 -0.39053175 -0.08170132
000130 d6 71 06 3d ec 38 96 3c 8f 57 b8 3d 24 07 44 3e
       0.032823406 0.01833769 0.090010755 0.19143349
000140 0e 9c 69 3d 57 27 e7 3b aa 2b 9d 3c fd d2 0b 3d
       0.05703359 0.00705425 0.01918586 0.03413676
000150 ec 92 02 3e b9 6d 3c 3d d4 16 49 3d 9e 2a 02 3d
       0.12751359 0.046003077 0.049094036 0.031778924
000160 78 41 38 be 66 35 03 3d 46 4c 5f 3e 3b ce 11 bd
       -0.17993724 0.032033347 0.2180644 -0.035597067
000170 ef e3 92 bd e4 d5 cc 3c c0 01 b9 3c e0 63 83 bd
       -0.07172381 0.025004335 0.022583842 -0.06415534
000180 59 b5 28 3f 90 53 6d 3c ab c3 36 bd 01 6d b5 be
       0.65901715 0.014485255 -0.044620197 -0.35434726
000190 22 9b e3 bc a9 37 69 bc d7 e9 28 3e 23 24 25 3d
       -0.027783934 -0.014234462 0.16495453 0.040317666
0001a0 eb 9f 2e be 4e b6 03 3d bd ff 01 bc 84 c2 c0 3c
       -0.17053191 0.03215628 -0.007934508 0.023530252
0001b0 12 57 f2 3b b5 53 f5 bd 0d c2 a7 bd 85 91 0f be
       0.0073956335 -0.119788565 -0.08191309 -0.14020355
0001c0 31 35 e6 3c 1c aa a3 3c d4 b3 d1 3d b9 97 8c 3d
       0.028101536 0.019978575 0.102393776 0.06864876
0001d0 23 9f 48 bd e9 19 31 3e cb c6 e6 bd da 06 d9 3c
       -0.04897989 0.1729504 -0.112683855 0.026492525
0001e0 82 19 c2 3b f5 fa 89 3c a8 d4 11 bc f5 cf c5 3c
       0.005923451 0.016843298 -0.008900799 0.024147013
0001f0 be 97 08 be ee 18 fe bd eb b9 31 3d 4e 10 9e be
       -0.13339135 -0.12407099 0.043390196 -0.30871814
000200 19 e5 64 3c 0f 6e 18 bd ef 7f 75 be bc 8b dc bd
       0.013970637 -0.037214335 -0.23974584 -0.1076884
000210 47 c4 1e be 4d 80 f5 bb 51 68 6c be 27 ad 5b 3f
       -0.15504561 -0.0074921013 -0.23086669 0.85811085
000220 b0 a1 59 bc 0c 08 85 bb 01 07 81 be e4 52 79 be
       -0.013283178 -0.004059797 -0.25200656 -0.24348027
000230 62 25 19 bd 63 3f 91 3d f6 3e 1e 3d e6 05 f7 bb
       -0.037389167 0.07092168 0.038634263 -0.007538545
000240 94 fe d0 3d 58 f8 ad bd 7f a9 6a 3d 10 1f da bb
       0.10204807 -0.084946334 0.05729055 -0.006656535
000250 ce 2b 04 3d 70 cd 86 3a 1e 49 86 3d 34 4b 5b be
       0.032268338 0.0010284614 0.06556915 -0.21415406
000260 05 18 c1 3c 66 14 98 3e df ef c8 3d b0 71 35 3b
       0.023571024 0.29703063 0.09811377 0.0027686171
000270 3d e1 e8 3d 33 d6 1d 3d 85 07 2b be 8e 96 47 be
       0.11371086 0.038534354 -0.16702087 -0.19491026
000280 40 df 58 ba 90 21 bc 3b 56 d2 4d 3e d4 cf 3a be
       -0.0008273013 0.0057413056 0.20099768 -0.18243343
000290 2e 0a 9b 3d df 33 d1 3c 41 fd 9c be 38 f5 16 3e
       0.07570301 0.02553743 -0.30661967 0.14741981
0002a0 5d c7 42 bc 97 97 69 3e 35 10 e9 3b 74 21 de 3d
       -0.011888352 0.22811733 0.0071125277 0.108462244
0002b0 f4 16 1d 3c 5a 47 1a bd fc a9 5d bd 47 78 2b 3e
       0.009587992 -0.037665702 -0.054117188 0.16745101
0002c0 c2 0f 43 3e 9d 38 9e be e7 aa 1e 3d 88 7f 33 3d
       0.1904898 -0.30902568 0.038737204 0.043822795
0002d0 02 8a f2 bd 25 8d 29 be d5 39 14 bd 8d 6f 61 be
       -0.11842729 -0.16557749 -0.036187965 -0.2201521
0002e0 4a 8b ca be 99 cf fc 3e bb 3d 31 3d 02 75 be bc
       -0.39559394 0.49377134 0.04327176 -0.023249153
0002f0 f5 e2 25 3d d3 e0 98 3c 20 aa 98 bd 60 94 77 bd
       0.040499646 0.018661892 -0.07454324 -0.060444236
000300 24 a1 3d 3e 80 20 5b bd 55 bc 13 ba f0 96 2e be
       0.18518502 -0.05349779 -0.00056356686 -0.17049766
000310 6f 68 38 be 84 35 1b 3a c7 83 45 bd 4f 11 06 be
       -0.18008588 0.0005920755 -0.048221376 -0.1309254
000320 a3 75 1a 3c f4 d4 d4 3e b7 52 03 be 4a 66 21 bd
       0.009427461 0.4156872 -0.12824522 -0.03940419
000330 9c 2f 0a bc a0 08 11 3d 18 75 9d bd a0 28 05 be
       -0.0084342025 0.035408616 -0.076883495 -0.13003778
000340 7b af 75 be bf 82 21 bd 1c 9a 95 3c 54 90 b6 bc
       -0.23992722 -0.03943133 0.018261962 -0.022285618
000350 48 1e 1a 3e 2f 7e cc bc f3 73 ad 3d 85 e4 cc bc
       0.15050614 -0.024962513 0.08469381 -0.02501131
000360 38 41 40 3d ce ae b8 bb f7 3b b0 3e 1e 56 3d bd
       0.046937197 -0.0056360727 0.3442075 -0.046224706
000370 6f af 96 3d d1 47 dd bc 2a 09 ba 3c 11 cd be 3c
       0.0735768 -0.027011784 0.022709448 0.023291143
000380 e7 bc d9 be f7 33 70 3b bb 97 49 3d e4 95 a6 bc
       -0.42526934 0.0036652067 0.049216967 -0.020335145
000390 8c 36 bd b8 02 cc f8 bd 92 e5 b2 be 44 0d 3a 3b
       -9.0223824e-05 -0.121482864 -0.34940773 0.0028389255
0003a0 48 5c f1 bd f8 ee ef bd 70 93 ca bc 1a 87 84 3b
       -0.117851794 -0.117155015 -0.024728507 0.0040444257
0003b0 d3 47 50 bd 95 0f 9a b9 63 d7 a2 3d 88 ab ff 3b
       -0.050849747 -0.00029384778 0.07951238 0.0078024305
0003c0 ab a4 bc 3c ff 20 30 3b 5c ef fe 3e ca 10 12 bd
       0.023027739 0.0026875136 0.49791992 -0.035660543
0003d0 d8 e3 2c 3d 66 ae 7f be 56 10 48 bd b4 f8 30 bc
       0.042209476 -0.24968871 -0.048843704 -0.010801483
0003e0 9a fc 57 3a 57 bf 55 be 64 1a 09 bd 2c 02 08 3c
       0.00082392397 -0.20873772 -0.033472434 0.008301299
0003f0 c9 69 9d bd 34 e5 0a be 29 16 60 3d a8 5e 07 be
       -0.076861925 -0.13563997 0.054708634 -0.13219702

bias f4 [5]
000000 00 2d f3 be 3a b2 22 bd ce 61 88 bd 1c 34 45 bd
       -0.4749527 -0.03972075 -0.0665928 -0.0481454
000010 4c d9 22 3e
       0.15903205

weight f4 [128, 26]
000000 6f 4a a3 3e 5c ce 4d be f6 57 14 3f 5b 22 6a be
       0.31892726 -0.20098251 0.5794672 -0.22864668
000010 4e 3b 0b bb 8f 91 86 3e 32 4a 72 be 3c 64 dd 3e
       -0.0021245065 0.26282927 -0.23661116 0.43240535
000020 6c 43 7a be af 36 28 3e 5f 19 7e 3e e8 60 30 be
       -0.24439782 0.1642711 0.24814366 -0.17224467
000030 af 0b 89 be 5a 90 95 bd fe 99 d6 3c 02 3a 13 be
       -0.26766726 -0.073029235 0.026196476 -0.14377597
000040 1e 21 20 be a0 39 8e 3d 8b c0 45 bd 67 0f 5a 3d
       -0.15637633 0.06944585 -0.048279326 0.053237345
000050 b1 5f 5d 3e 2c 5d 9f 3d 6b 46 db 3e 1f 99 90 3c
       0.21618535 0.07781443 0.42827162 0.017651139
000060 14 f6 26 be 01 ae 72 bd 05 0b a1 3e 0b 00 0f 3f
       -0.16304809 -0.059247974 0.3145372 0.5585944
000070 ed db ed 3e ff 06 82 3b a9 0b 2f be 87 56 16 3e
       0.46456853 0.003968119 -0.17094292 0.14681445
000080 9b f8 6d 3e 4d 75 b8 3e 8f 70 cc 3d d6 65 ff 3c
       0.23239367 0.36026993 0.09982406 0.031176489
000090 a4 ba 31 be c6 3f 4b 3e d9 20 89 be 4c 27 ea bd
       -0.17356354 0.19848546 -0.26782873 -0.114332765
0000a0 aa c9 2a bd 64 4d 94 be c6 bc 9a bd 73 ca 99 3e
       -0.041696228 -0.28965294 -0.07555537 0.3003727
0000b0 23 fc 5a be 77 69 64 bc 23 25 2e bd 1c 6c c2 bd
       -0.21385245 -0.01394116 -0.042515885 -0.094932765
0000c0 3e 1d d0 3e ea 9e da be 80 55 df 3c de 9a e2 3e
       0.4064731 -0.42699367 0.02726245 0.4425878
0000d0 f0 09 d3 3d 19 f1 a7 3e 07 b8 58 bd 40 df 2b be
       0.1030463 0.3280113 -0.052909877 -0.16784382
0000e0 7e f6 b7 bb 7f 01 1c 3d d7 50 eb bd c1 36 23 3e
       -0.005614101 0.038087364 -0.11490028 0.15938856
0000f0 33 ae 96 3d 70 ac 8b bd c8 d7 7e 3d ec 7f a5 3e
       0.073574446 -0.06819999 0.062217504 0.3232416
000100 1a c9 09 3e ac 0b 10 be 93 af 87 bd 11 2d a2 3d
       0.1345562 -0.14066952 -0.06625285 0.07918752
000110 05 a1 20 bd 91 20 b7 3e 80 50 89 bb 1a e3 5b 3e
       -0.03921606 0.35767034 -0.0041905046 0.21473351
000120 10 85 8b 3d 1c 66 93 3e fb fe a5 3d 90 e3 56 be
       0.06812489 0.2878884 0.08105274 -0.20985246
000130 68 66 07 3e 9c 9b 82 be 2f b2 64 bd b3 b5 aa 3e
       0.13222659 -0.25509346 -0.05583399 0.3334175
000140 58 a4 6a 3e 5f a7 ab be 3e 67 b7 be cf c3 ed 3d
       0.22914255 -0.33526132 -0.35820955 0.11609613
000150 4b 88 95 be 30 8b 9e 3e 9d 05 80 be 3d 57 8b 3e
       -0.29205546 0.30965567 -0.25004283 0.27214995
000160 72 19 cc 3d 83 01 60 3e 74 8c a3 3e fe 65 4c be
       0.09965791 0.21875577 0.31943095 -0.19960782
000170 11 f1 93 be 33 b8 2b be ae ed a3 bd 3b dd 9e be
       -0.28894857 -0.16769485 -0.08004318 -0.3102816
000180 a3 86 81 3e a9 04 99 be 76 0b ff bd 7e 7a 7e bd
       0.25298032 -0.29886368 -0.12453358 -0.062128536
000190 67 69 19 be fb 58 a8 bd 12 9e 43 be 9b 1e 52 3d
       -0.14981614 -0.08220097 -0.19103268 0.05129872
0001a0 42 e3 11 3c 2e bd dd 3d 82 6c 11 bd fc 44 90 3e
       0.00890428 0.10827099 -0.03550387 0.2817763
0001b0 49 ea 25 3e 36 00 a1 be aa a3 e5 bc b0 f4 96 be
       0.16202654 -0.31445473 -0.028032143 -0.29483557
0001c0 3e bd 04 be 18 56 91 bc 4a ab 91 3d 4e 05 86 3e
       -0.12962815 -0.017741248 0.07112749 0.26175922
0001d0 12 24 47 bd bb 5a 83 3e 10 be 4d bd 82 fd 8f 3e
       -0.048618384 0.2565516 -0.050230086 0.281231
0001e0 0e 1a 0f be 59 fa 39 3d 10 47 1e 3e 0b 8d 0a 3e
       -0.13974783 0.045404766 0.15456796 0.13530366
0001f0 08 57 01 be 7d c4 bb 3e d4 5a 54 be a7 8a 76 3d
       -0.12630856 0.36673346 -0.20737773 0.060190823
000200 db 09 fc 3e 17 15 1b be cb 20 53 3e 46 f8 5f be
       0.4922627 -0.15144764 0.20617978 -0.21872053
000210 e1 a1 26 3e b6 2d fd 3e 4d 67 e9 bd 45 67 b9 3d
       0.1627269 0.49448937 -0.11396656 0.090529
000220 ba 24 80 bd 86 17 2b be 9c 6e 3d bd 91 8d 32 be
       -0.06257005 -0.16708192 -0.046248063 -0.17436816
000230 71 c4 88 be 5e 22 a6 b9 4a 4f 73 bd 12 9f 91 3e
       -0.26712373 -0.00031687593 -0.059401788 0.28441674
000240 88 02 4d be 2c 10 06 bf b6 b5 d9 bd ae 63 27 be
       -0.20020497 -0.52368426 -0.10630362 -0.16346619
000250 c1 8e 9e be bd 10 1e 3c 19 57 92 3d d1 b3 61 bb
       -0.30968288 0.009647545 0.07145519 -0.0034439454
000260 87 44 08 bf 4c cb 07 3f d9 42 d8 be b0 d5 5d bf
       -0.53229564 0.5304458 -0.422385 -0.86654186
000270 65 c5 2a 3e ea 41 c1 3e 9c b8 19 3c 74 56 01 3f
       0.16676863 0.377456 0.009382393 0.5052254
000280 e0 d9 02 bf 05 40 69 be 67 5c d7 bd bc 82 99 be
       -0.511137 -0.22778328 -0.10515671 -0.29982555
000290 e0 e8 92 bc 21 ee 61 be d5 0f 92 be f4 59 05 3e
       -0.01793331 -0.22063495 -0.28527704 0.13022596
0002a0 1b 5d 04 be fc d8 87 bd 43 a2 96 be 11 f4 03 bd
       -0.12926142 -0.06633183 -0.2942067 -0.03221518
0002b0 16 89 90 be ec 26 76 3d 96 f2 fa bc c5 e5 17 be
       -0.28229588 0.060095713 -0.030633252 -0.14833744
0002c0 f2 3f 66 3c f7 e1 1a 3d d7 35 ba 3e 91 60 cd 3e
       0.014053332 0.037813153 0.36369202 0.40112737
0002d0 d2 d8 34 be 31 b8 b2 bc a2 bc a2 3d ef 1d da be
       -0.17660835 -0.021816345 0.07946135 -0.42600963
0002e0 d5 3e 8d 3e 9d 01 8a be eb 1a 2d be f2 76 d1 bd
       0.27587 -0.26954356 -0.169048 -0.10227765
0002f0 66 87 bc 3c b9 5e 50 3e 13 07 29 be 85 52 1c 3e
       0.023013782 0.20348634 -0.16506605 0.15265854
000300 90 cd c3 be a2 9c c8 be 7c 0a 49 be 10 05 7e 3d
       -0.3824277 -0.39182 -0.19632906 0.062016547
000310 ec 49 ad 3d 22 be e5 3d c2 80 8b be ad dc 12 3e
       0.08461365 0.112179056 -0.27246672 0.14341994
000320 0d 2e d9 bd 14 9d b3 bd bf 5a ab 3e 8e 4d 30 be
       -0.106044866 -0.08770195 0.3346767 -0.17217085
000330 f8 e4 e2 3e a5 05 13 3e 31 96 bd 3c 1b dc 98 bd
       0.44315314 0.14357622 0.023142906 -0.07463857
000340 c4 a8 ba bd f6 57 51 3e 22 d9 2b bd 96 49 9a bc
       -0.09114221 0.2044371 -0.04195512 -0.018833917
000350 77 5c 93 3d 27 ba 0d 3e ae 91 3e 3a 74 16 82 3e
       0.07195371 0.13840543 0.0007269633 0.25407755
000360 15 b7 3f 3e a9 79 14 3e 02 75 a8 bd 22 dd 29 3d
       0.18722184 0.14499535 -0.082254425 0.041470654
000370 f5 c8 e9 3c eb b8 53 be 28 c1 6d bd cb 47 5f be
       0.028538207 -0.2067601 -0.058045536 -0.2180473
000380 d6 cf 37 be 62 c9 bc bd 9a 28 a5 be fc 40 19 3d
       -0.17950377 -0.09218098 -0.3225754 0.03741549
000390 9e 0f 7d be dc 8b 80 be e6 17 af bd 9c f1 6b 3d
       -0.24712989 -0.25106704 -0.0854948 0.057603464
0003a0 56 9f a9 3e 48 37 1a 3f fb aa 44 3d f1 11 7f be
       0.33129376 0.602406 0.048014622 -0.24909188
0003b0 66 32 4e be 3e ca 1d bd f0 46 5f 3e 78 40 38 bc
       -0.20136413 -0.03852295 0.21804404 -0.011245839
0003c0 bf 31 78 3e 02 59 72 bc 4d 50 37 3b 71 45 68 bd
       0.24237727 -0.014791729 0.0027971447 -0.05670685
0003d0 fc c7 8d 3e 31 cf 49 3e b6 e8 0e 3c 58 78 8e 3d
       0.27691638 0.19707943 0.008722475 0.069565475
0003e0 c4 f8 48 3e 23 8e 55 3e 1e f0 af 3d c5 36 91 3b
       0.19626147 0.20855002 0.085907206 0.004431578
0003f0 e8 0b 9d 3e 4a e0 54 3e 02 80 c9 3d be 52 b3 3d
       0.30673146 0.20788684 0.09838869 0.08756016

bias f4 [128]
000000 56 40 de bd b8 7f 1a 3f 90 d9 eb 3c dc 74 9c bd
       -0.10852115 0.60351133 0.028790265 -0.07639477
000010 9b 03 f4 bd 04 15 9b 3c 4b d9 8b bc ca 17 8b 3e
       -0.1191475 0.01893092 -0.017071387 0.27166587
000020 f8 94 08 bf 5f 25 96 bd dd 88 22 3e 10 22 a4 bd
       -0.5335231 -0.07331347 0.15872522 -0.080143094
000030 18 5c e3 3d a6 9e 44 be 44 6e 9a 3e 7d 69 2f bd
       0.1110155 -0.19201145 0.3016225 -0.04282521
000040 22 8f 3a 3e a0 7d bf be df 74 6a bd 3d 8a fd 3e
       0.18218663 -0.37400532 -0.057240363 0.4951953
000050 70 37 0e 3e 59 80 4c 3e 56 63 40 bd ff e9 59 be
       0.13888335 0.19970836 -0.046969734 -0.21280669
000060 ff 68 84 3d 83 3d 43 3e c0 53 07 3d 96 fe 86 3e
       0.06465339 0.19066434 0.033038855 0.2636611
000070 d2 30 eb bc 3b dd 81 bb 57 39 bb be 32 9b 9e be
       -0.028709803 -0.0039631403 -0.36567184 -0.3097778
000080 99 26 db be 85 f8 21 be 6d c4 b9 be 59 70 f8 3d
       -0.42802885 -0.15817459 -0.36282673 0.121308036
000090 ae af a0 be de c1 1b 3e fb df cd 3c 03 e1 9d be
       -0.31384033 0.15210673 0.025131216 -0.30835733
0000a0 bc da 8e bd 4d 18 e6 3e fe 78 d8 3c 24 1b 7f be
       -0.06975314 0.44940415 0.026424881 -0.24912697
0000b0 9c 3e 20 bd 54 e0 e1 3e 47 49 29 3f 0d 06 3b 3e
       -0.03912221 0.4411646 0.6612744 0.18264027
0000c0 cc 8f 84 be e2 6a 92 be 39 30 cf be e3 32 4a be
       -0.25890958 -0.2859717 -0.40466478 -0.19745974
0000d0 83 34 af be f6 0b 1e 3e a5 88 a3 3e 10 12 b0 3e
       -0.3421975 0.1543425 0.3194019 0.3438878
0000e0 37 0a b8 bd e4 97 63 3e 47 3d b9 3e 86 bf e8 3e
       -0.08986323 0.2222591 0.36179563 0.4545862
0000f0 91 2b 09 bf a4 92 f5 be 2e 7e a3 3c 88 7f e4 3e
       -0.535821 -0.4796344 0.019957628 0.4462855
000100 a0 cf 99 3b bd cd 82 3e d8 8b 36 bd d1 d3 ed 3e
       0.0046939403 0.2554759 -0.04456696 0.46450666
000110 42 32 37 bd 3e 68 3f be 95 3a 42 be fd 29 10 3d
       -0.044725664 -0.18692109 -0.1896766 0.035196293
000120 15 9f d5 3e 54 12 a5 be c0 6b cc be c1 da e4 bd
       0.41722932 -0.32240546 -0.39925957 -0.111745365
000130 43 71 00 3f 56 cf 80 3e cf 7b 70 3d 09 01 38 be
       0.50172824 0.25158185 0.058711823 -0.17969145
000140 4a c9 8d 3e df 78 2d 3e 9c 92 cf 3d f5 2c 64 3e
       0.27692634 0.1694064 0.101353854 0.22282775
000150 e7 a4 2f 3d 1e 5e a6 be d0 4f 87 bd 5e b7 41 be
       0.042881873 -0.3249368 -0.0660702 -0.18917605
000160 d8 be e7 3e 25 49 dc bd fa af 09 bf 5d ce 80 3e
       0.4526279 -0.10756139 -0.53784144 0.25157443
000170 87 06 96 bd 87 8d 4e 3d 32 b3 d2 3e 6e 47 a6 3e
       -0.07325464 0.05042794 0.4115234 0.32476372
000180 b2 c0 c2 3c f0 c3 83 3e dc a6 3d be 4b f8 37 3d
       0.023773525 0.25735426 -0.18520683 0.044914525
000190 b3 25 61 3e e5 e4 5a 3e 10 f8 8b 3e 9a 96 7f be
       0.21987037 0.21376379 0.27337694 -0.24959794
0001a0 c6 40 67 3e c2 f7 2c 3e 46 0c 00 3f 5b c2 ac 3c
       0.22583303 0.16891387 0.5001873 0.02108877
0001b0 c9 d4 89 3e f2 b3 ce be e9 67 fc 3d 0f 21 a6 3e
       0.26920155 -0.40371662 0.12324507 0.32447097
0001c0 e7 f0 04 bd d2 cb 0a bf 4d b2 8c 3d 4f 11 40 be
       -0.032456305 -0.54217255 0.06869946 -0.18756603
0001d0 e1 6f cf 3e 2f f6 91 bd 4a 59 99 3e 5b 50 12 be
       0.40515044 -0.07127034 0.29950935 -0.14288466
0001e0 16 20 18 be 4a e6 47 3e 18 0f ca 3c 1c 15 9d be
       -0.1485599 0.19521442 0.0246654 -0.30680168
0001f0 d7 09 1c 3e 5c 78 b6 bd cb f9 19 3e c7 37 23 3e
       0.15238129 -0.089096755 0.15036695 0.15939246

weight f4 [128, 128]
000000 45 f1 aa bd 36 31 ec bd f9 e1 48 bc 00 f6 95 bd
       -0.083468 -0.11532824 -0.012260907 -0.073223114
000010 ac e7 cf bd e3 00 ac bd ce 70 de bd 0c 92 d8 3c
       -0.1015161 -0.08398607 -0.108613595 0.026436828
000020 8b 51 81 bd 6a 61 52 3d 72 5b 1b bd b1 fd a0 bd
       -0.06314381 0.051362433 -0.037929006 -0.07860888
000030 5f f6 db bd 4a bf ce bd fe 88 18 3d f8 22 1c bd
       -0.10740351 -0.10095079 0.03724002 -0.038119286
000040 98 3c e6 bd 74 d5 a8 3c 01 1c eb bd b6 3e cf 3c
       -0.11242026 0.020609595 -0.11479951 0.025298458
000050 d4 8e d0 bd 28 a4 72 3b a2 3d d7 bd ea 77 e8 bd
       -0.10183492 0.0037024114 -0.105098024 -0.11350997
000060 42 d5 5c bc 30 43 10 bc 42 cb 02 bc 3a 6d 83 bc
       -0.013478579 -0.008805081 -0.007983031 -0.016043294
000070 45 f5 82 3d db 0b 98 bd 6d 6f 26 3d 4f 73 14 bd
       0.06394438 -0.07424136 0.040633608 -0.03624278
000080 e3 99 86 bd b3 f4 1b bd 8f fb d7 bd 4d 42 02 3d
       -0.0657232 -0.03807516 -0.10546028 0.03180151
000090 1d 96 0c 3d a4 e9 b8 3b 4e d0 28 3c 9d 14 e4 bd
       0.034322847 0.0056430865 0.01030357 -0.11136744
0000a0 19 15 b3 bc 81 9b db 3c 52 d1 ea bd ea 12 e3 3b
       -0.021860646 0.026807548 -0.11465706 0.006929745
0000b0 a6 82 9d bd 88 89 f1 bd 14 5b 79 bd 4f d8 96 bd
       -0.07690935 -0.1179381 -0.060877874 -0.07365476
0000c0 d2 da 94 bd bf cd 44 bb 88 8e b4 bc e1 51 2b 3d
       -0.07268299 -0.003002986 -0.02204062 0.041826133
0000d0 f3 b2 02 3d 00 a8 da bc 8e 8b 88 bc c8 79 f5 bd
       0.03190894 -0.026691437 -0.016668107 -0.119861186
0000e0 ca 26 07 bc 41 ee 89 bd d0 ba fc bd f8 b8 91 bc
       -0.008248994 -0.067348965 -0.12340319 -0.017788395
0000f0 7d 9e ae 3b bc b4 86 3d af c9 4b 3d cd 14 ce bc
       0.005328952 0.06577441 0.049752887 -0.025156403
000100 dc c9 04 be 8d 93 ff 3c cc 65 a2 bd 1f f4 ab bd
       -0.12967628 0.031198287 -0.079295725 -0.08396172
000110 c2 6c 24 bd 00 37 d4 3c 15 60 f9 bb b2 69 b5 bb
       -0.040142782 0.025905132 -0.007610331 -0.0055362815
000120 10 ac b3 bb c7 59 b3 3a f6 f3 9c bd 94 ef 95 bd
       -0.005483158 0.0013683372 -0.07663719 -0.073210865
000130 08 39 81 3c c6 ae 8b bd ee 7b 0a 3d 3e 17 4f bd
       0.015774265 -0.06820445 0.033809595 -0.050559275
000140 7c 30 0f bc d9 6d d4 bd 8e 20 54 bd 76 c7 d5 3c
       -0.008739587 -0.10372514 -0.05178886 0.026096087
000150 75 a3 d1 bd 2a 24 f9 bc 4e 53 88 3c 91 15 db bc
       -0.10236255 -0.030412752 0.016641285 -0.026743682
000160 97 27 5e bd cf dc a5 bd 20 9d aa bc 8c 98 be bd
       -0.054236975 -0.080987565 -0.020826876 -0.0930644
000170 8f bd 6c bd 9b 1c 90 3b 68 60 b6 bd a2 ec 3d bc
       -0.057797965 0.0043979413 -0.08905107 -0.011592062
000180 32 a1 c0 bd 2c 32 c8 bd cf d7 05 bd de 78 ea b7
       -0.094057456 -0.097751945 -0.032676514 -2.7951257e-05
000190 26 d3 a7 bd ab b0 03 3d 82 a5 5c 3d bc c3 3d bd
       -0.0819457 0.032150906 0.053868778 -0.046329245
0001a0 f4 31 f6 ba 3b 83 00 bd 15 77 6f bd 9b 51 0b 3c
       -0.0018783198 -0.03137515 -0.058463175 0.008503343
0001b0 ae a6 f1 bc 4c 2b ac 3b 0a 40 40 bd b6 47 2b bd
       -0.029498424 0.005254185 -0.046936072 -0.041816436
0001c0 87 88 a3 bc e5 25 26 bd fe 2c c3 3c fa 42 cc bd
       -0.019962562 -0.040563483 0.023825165 -0.09973712
0001d0 6c 40 1c 3c 98 5b 5a ba 92 31 81 bd c6 fb 89 bd
       0.009536844 -0.00083296886 -0.06308283 -0.06737475
0001e0 32 e4 f6 bc 4f 25 3e bd 8b 63 2d 3d 4e 94 90 bd
       -0.030138109 -0.0464223 0.04233126 -0.07059537
0001f0 2f e1 77 bd 5f f1 b1 bd 6d 6f f8 bb 44 26 7f 3c
       -0.060517486 -0.08688616 -0.0075816424 0.015573088
000200 cc d3 06 be 27 b4 53 3c 86 a5 ff bd fe 97 93 bd
       -0.13166732 0.01292137 -0.12482743 -0.072067246
000210 4e 9e d1 3c f6 44 cb 3c 1d 32 68 bd 7e f6 b6 3c
       0.02558818 0.024813157 -0.056688417 0.022334334
000220 84 f5 bd bd 16 64 fe bd 21 f0 2f bc a4 38 ff bd
       -0.09275344 -0.12421434 -0.010738404 -0.12461975
000230 a8 18 e1 3c 39 fc 54 bc 76 0e 5b 3d d8 24 c3 bc
       0.027477577 -0.012999588 0.053480588 -0.02382128
000240 ea 86 82 3c 73 9f bc bb c2 cb b0 bc 18 5e 1b bd
       0.015933473 -0.0057563125 -0.021581534 -0.03793153
000250 dd 22 09 3d fa 2a 25 3d b5 0b ee 3b 8e 22 01 be
       0.033480514 0.04032419 0.007264579 -0.12610838
000260 5a 78 9c 3c 3c 7d 89 bc 66 8d b4 3d b2 5f e5 bd
       0.019100357 -0.01678335 0.08816032 -0.11199893
000270 a6 cb ac bd e3 12 e5 bc fc 9e 1c bc 36 b5 28 3d
       -0.0843728 -0.027963107 -0.009559389 0.04118844
000280 79 c9 c2 bc 4f 56 16 be 57 59 9f bd 31 16 3a bd
       -0.02377771 -0.14681362 -0.07780712 -0.04543132
000290 c4 b2 fb bd 09 fa 82 3d ba 91 34 39 5f f8 92 3b
       -0.12289956 0.06395347 0.00017220425 0.0044851745
0002a0 5c d3 d8 3c b8 bd 46 3d da 75 53 bc 29 62 31 bd
       0.026467972 0.048520774 -0.012906516 -0.043306503
0002b0 84 a1 69 3c 34 4c fd 3b 29 6a 08 bd 7f ca ac bd
       0.0142597 0.0077300314 -0.033304367 -0.084370606
0002c0 c5 2d 44 bd 29 21 9f bc c8 fe b5 bd 92 4d 83 bd
       -0.04789521 -0.019424992 -0.08886486 -0.0641128
0002d0 ed 81 8f bd a1 98 96 bd 4a ec 49 3d 98 2a 0e 3d
       -0.07007203 -0.073533304 0.04929761 0.03470859
0002e0 7f b4 82 bc a9 b3 79 3d ba 55 f0 bc 5a cc 29 bd
       -0.015955208 0.060962353 -0.029337753 -0.04145465
0002f0 18 1b 21 bd 33 9b 24 be c0 c7 5c 3c 1d e9 b8 3c
       -0.03933248 -0.16074829 0.0134753585 0.022572095
000300 a1 cc 23 bd b2 60 67 3d 0b c9 b4 3c 3a 59 89 bd
       -0.03999007 0.0564887 0.022068521 -0.06706472
000310 f2 ee a5 bd 09 6c 30 3d ff 7e da 3c 4f b0 c6 bd
       -0.08102216 0.04307178 0.026671885 -0.09701597
000320 d5 39 41 3d 81 49 10 be 6e af af 3c 0c 9d 03 bd
       0.047174294 -0.1409054 0.021445956 -0.032132193
000330 2c fa 1c be c1 89 5c bd 6c 03 9d bd f9 94 8a 3c
       -0.15329808 -0.05384231 -0.07666668 0.016916739
000340 99 fc 29 bd af 65 81 3d fa 83 84 bd c9 d0 26 bd
       -0.04150066 0.06318223 -0.06470485 -0.040726457
000350 24 87 54 3c d3 08 05 3b 94 b1 17 bc 15 d5 1c bc
       0.012971673 0.002029945 -0.0092586465 -0.009572287
000360 a8 6e 14 3d 2c 6e d2 3c 1b 63 3f 3d af 98 d5 3c
       0.036238343 0.0256873 0.046725374 0.026073782
000370 20 05 9d bc db 2c d3 bc 4d 83 0c 3d 04 13 91 bd
       -0.019167483 -0.025778225 0.034304906 -0.07083705
000380 a3 45 27 bc 12 20 ab bb 80 5c a3 3d 62 85 25 bd
       -0.010209474 -0.005222329 0.07976627 -0.040410407
000390 7c ff de bc 16 29 2f bd e0 33 90 bc 4e e6 d7 bc
       -0.027221434 -0.042763792 -0.01760286 -0.026354935
0003a0 4d 8e 82 3b 09 c9 4b bc 8d b1 b2 3c 42 43 03 bb
       0.0039842487 -0.012438067 0.021813178 -0.0020029102
0003b0 7d 9a b1 bc af d9 be 3b 71 c0 1d bb fd e5 08 be
       -0.021680111 0.0058242898 -0.0024071003 -0.13368984
0003c0 1f 94 65 bd 71 b1 61 bd 47 ee 1d bd 99 15 e2 bd
       -0.056049462 -0.055100862 -0.038557317 -0.11039276
0003d0 1b 15 6e bd 4e 3b b2 bd 95 dc 87 bd 5a b9 0a be
       -0.058125596 -0.08702718 -0.066338696 -0.13547269
0003e0 93 a5 20 bd 06 2f 14 bd 7b 2c 5e 3c 48 a0 33 be
       -0.039220404 -0.036177658 0.01356041 -0.17541611
0003f0 32 14 88 bd bc 30 90 3b 35 a6 a6 bd 3b 08 7d bd
       -0.06644477 0.004400341 -0.0813717 -0.061775427

bias f4 [128]
000000 17 cf cf bd 07 f5 78 bc 3b 27 99 3d 33 7c f2 3b
       -0.10146921 -0.015195138 0.07478186 0.0074000596
000010 9a 56 0e 3e 84 d9 bc bc d0 78 ce 3d 55 d0 ce 3e
       0.13900223 -0.023052938 0.10081637 0.4039332
000020 cc 85 5f bd 9b 18 97 bd ec 0f 3d 3d e5 b8 43 3e
       -0.054570958 -0.0737774 0.046157762 0.191135
000030 97 46 9a 3e 88 6f 31 bd 73 d2 f9 bd 46 87 5b 3d
       0.3013198 -0.043319255 -0.12198343 0.053595804
000040 e4 19 7c be 49 71 32 3e 7b e8 45 3e f9 b3 d7 bd
       -0.24619251 0.17426027 0.19326966 -0.10532374
000050 03 01 d3 bc 18 1d 13 3e f0 b2 e6 3e 04 07 48 3d
       -0.025757318 0.14366567 0.45058393 0.048834816
000060 15 9b 0c be f2 9d 0b 3e 55 d6 c5 bd 70 5d 49 bd
       -0.13731034 0.1363447 -0.09660021 -0.049161375
000070 a0 2f 62 3e f2 10 2d bd 60 2e ab 3e 48 bd f0 3d
       0.2208848 -0.04225249 0.3343382 0.117548525
000080 d3 f8 e4 bd 5a 2e e2 bd 1e 2b 7d 3e 9e 25 31 3e
       -0.11180272 -0.11043997 0.24723479 0.17299506
000090 31 29 20 3e 40 17 59 bc 9d df 16 3e 39 c9 1f bd
       0.15640713 -0.013250172 0.14733739 -0.03901026
0000a0 78 4c b2 bd e3 f9 87 3d 1a 0c 05 be c3 d5 a2 bd
       -0.087059915 0.06639459 -0.12992898 -0.07950928
0000b0 7e 7b 5a bd 53 91 6e bd 93 cf a1 3e 54 cc 60 be
       -0.053340428 -0.05824406 0.3160368 -0.21952945
0000c0 f9 15 68 3e c9 87 99 3e 28 73 ab 3e fa 23 ba 3e
       0.22664632 0.29986408 0.33486295 0.36355573
0000d0 33 f4 89 3c ae 27 51 3e 03 42 14 bd 85 fe a1 3d
       0.016840076 0.20425293 -0.036195766 0.07909874
0000e0 c6 59 62 3e 66 cd d7 3d 63 22 3c bd 82 a9 c8 3d
       0.22104558 0.105372235 -0.04593123 0.09797956
0000f0 a6 d6 0e be 95 6c f3 bd d6 e7 9a 3d 1e 0f de bd
       -0.1394907 -0.11885945 0.075637504 -0.10842727
000100 f7 14 2a bd 81 68 d6 3c ee ee e2 bd 1c 52 d3 3d
       -0.0415239 0.026172878 -0.110807285 0.103183955
000110 93 a5 77 3d e7 04 15 be 73 df 08 be ac 26 fa 3d
       0.06046064 -0.14552651 -0.13366489 0.12214407
000120 c8 85 d2 bd aa 2f eb bc e8 e3 cf 3d 22 cc c4 bb
       -0.10279423 -0.028709251 0.101508915 -0.00600578
000130 15 81 85 bd e5 0d 24 be 5a e6 95 3e 42 74 91 3e
       -0.06518761 -0.16020925 0.29277307 0.2840901
000140 46 10 e6 3c a8 e4 b4 bd 63 60 c8 3e 24 8f ad bc
       0.028083932 -0.08832675 0.39136037 -0.021186419
000150 92 f3 10 3e 66 a0 8e bd b5 c0 17 3d c3 d8 23 bd
       0.14155415 -0.06964187 0.037049014 -0.040001642
000160 89 5e 90 be 3d 13 b6 bc bb 54 f3 3e 58 72 e6 bd
       -0.28197125 -0.02222597 0.47525582 -0.11252278
000170 4c ee 18 3f 60 d9 21 3d 37 15 96 bd 29 80 ad 3c
       0.5973861 0.039513946 -0.07328265 0.021179276
000180 55 d4 19 3e 2f f7 b4 bd 09 af 00 be 9b 2f d5 bd
       0.15022404 -0.08836209 -0.1256677 -0.10409471
000190 7a 5a da bd 0e 2f 13 3e 86 27 bd 3e 4b f9 ee bd
       -0.10661788 0.14373419 0.36944216 -0.116686426
0001a0 9c d3 07 3f ce 51 90 bd cd 28 fc bd f7 c4 8b bd
       0.53057265 -0.07046853 -0.1231247 -0.068246774
0001b0 56 19 e5 bd 8a 04 1a bd 2a 39 9d 3d ab be 93 3e
       -0.11186473 -0.037601985 0.07676919 0.28856406
0001c0 85 59 5f 3d 07 04 dc bc 13 9f 03 3f 4c f1 81 bc
       0.05452873 -0.02685739 0.51414603 -0.01586213
0001d0 33 bf a1 bd 93 2b 0f 3e 55 85 81 3e 92 7d 84 bd
       -0.078977965 0.13981466 0.25297037 -0.06469263
0001e0 58 39 a0 3c 45 ff 9a bd 79 90 9f bd 29 dd b2 bd
       0.019558594 -0.0756822 -0.07791228 -0.08733589
0001f0 31 c9 76 3d ac fd 06 3f ac 74 33 bd 22 49 a5 3e
       0.060250465 0.5273082 -0.04381244 0.32282358
