multiagent-particle-envs/scripted_agent_ckpt/simple_tag_n6_train_prey/good_agents_best.ckpt (torch_old, 825949 bytes, 50 tensors)

weight f4 [128, 26]
000000 fd 5c 8f 3e 31 12 f3 be ca 82 11 40 fb 9a e5 be
       0.28000632 -0.47474816 2.2736077 -0.44844803
000010 0e 13 58 3e 17 1d 42 bc c1 f1 b6 3d 27 43 ef bd
       0.21101019 -0.011847756 0.0893283 -0.1168273
000020 62 99 7e be fa 63 d5 3d a3 7b b7 3e f0 53 5b bf
       -0.24863198 0.1041946 0.35836515 -0.85674953
000030 b8 06 ee be 7f 87 8d 3e 61 ca e3 3e 5f cf 29 bf
       -0.464895 0.27642438 0.4449034 -0.6633205
000040 bf e2 9e 3e 11 dd 37 3f 8e 95 a9 bf 39 91 41 3f
       0.3103237 0.71821696 -1.3248765 0.7561222
000050 c1 0e 09 3d d6 e8 92 3d 7e 71 7e 3e 5f b0 19 bf
       0.033461336 0.07173316 0.24847981 -0.60034746
000060 a6 9c 9d 3e 69 f0 56 be 38 12 ff 3e 8a f6 30 3e
       0.30783576 -0.20990147 0.49818587 0.17281547
000070 b9 73 d2 3e 16 a4 01 3f 8c 74 01 be 0a 4f 4c bc
       0.41103914 0.50641 -0.12642115 -0.012470016
000080 1d a2 de 3d 3a 2a bf 3e 1b 58 2b 3f 3e 01 91 be
       0.108707644 0.37336904 0.66931313 -0.2832126
000090 9a ac a2 3e d4 a7 b6 3c 07 5a 9b be 20 6f 9f bc
       0.3177231 0.022296824 -0.30342123 -0.019462168
0000a0 4f e4 f5 3d 1b f9 83 be 8d 5f 96 be b7 bd e5 3d
       0.12006437 -0.2577599 -0.29369774 0.11217826
0000b0 07 7a 00 3e 1d be 70 3d 2b c9 f6 3d 2c e8 85 be
       0.1254655 0.058775056 0.120500885 -0.26153696
0000c0 88 20 2d 3e 71 0a 58 bc 09 bd d3 be 65 cc 34 3d
       0.16906941 -0.013186083 -0.4135516 0.04414024
0000d0 8a c7 b2 be 9e f9 d2 bf e1 b0 84 bf 53 24 a8 bf
       -0.3491786 -1.6482427 -1.0366479 -1.3136085
0000e0 a7 70 aa bd ec 51 8d be 78 ac 35 3e 0c 20 ee 3d
       -0.08322268 -0.27601564 0.17741573 0.11627206
0000f0 08 be 43 bd 12 dd 1f bc 59 b0 f3 be 6e 3a d9 3e
       -0.04778865 -0.009757297 -0.4759548 0.4242739
000100 32 13 b3 3d e1 c3 29 bd 3e 09 f9 be 26 1b 92 bf
       0.087438956 -0.04144657 -0.48639864 -1.1414535
000110 06 f7 1c 3c c2 65 0e 3e ef cc 17 bf 36 01 9b 3f
       0.009580379 0.13906005 -0.5929708 1.2109745
000120 bf eb 2b bf a3 12 17 bf 0b 76 00 be 78 de a3 bd
       -0.67156595 -0.5901281 -0.1254503 -0.08001417
000130 4c 25 cf bd 5c 47 b3 be 91 1c 93 bf 3b 93 d1 3e
       -0.10114536 -0.3501538 -1.1493093 0.4093264
000140 a2 1d a6 3f 68 a1 9d bf 1a 29 9f be ce ff 81 be
       1.2977793 -1.2314882 -0.31086046 -0.25390476
000150 4d 0f e6 3d 03 0a 92 3c 39 f2 3d 3e 6c 0a 4c ba
       0.11233387 0.01782704 0.18549432 -0.00077835354
000160 c1 a8 1d 3d 70 73 c7 bd e9 46 24 3f e4 60 65 bf
       0.038491014 -0.09738815 0.641707 -0.8960097
000170 27 3b e0 be f9 e3 64 3f 65 39 d3 be c6 c7 54 bd
       -0.4379513 0.8941036 -0.41254726 -0.05194833
000180 77 13 37 bd 74 f3 95 3e ce 8b 16 3e 1b e0 59 be
       -0.044696297 0.29287302 0.14701769 -0.21276896
000190 9e 44 aa bf 3a a7 8d bf 95 32 d7 be 5f 46 86 bf
       -1.330219 -1.1066658 -0.4203078 -1.0490226
0001a0 08 34 6f bf f1 35 7f 3f 62 b6 42 3f 76 4b f9 3f
       -0.9343877 0.99691683 0.76059544 1.9476154
0001b0 4d 68 12 3d bd e6 14 bf 2b 20 15 bf 48 c0 5e be
       0.035744 -0.5816458 -0.5825221 -0.21753037
0001c0 ac 80 77 bd 38 c8 30 be 4b 95 29 be 5f dc ed be
       -0.060425445 -0.17263877 -0.16560857 -0.46457192
0001d0 b3 2f f2 3e 0f c9 7d 3e be bf af be 73 83 76 3d
       0.47302017 0.24783729 -0.34325975 0.060183953
0001e0 6e 93 0c bf ec 41 c9 be bd 1c 5b 3e c5 55 88 3f
       -0.5491246 -0.39308107 0.21397682 1.0651175
0001f0 63 e4 37 bd 97 fa 8d 3f 96 79 a1 be 83 69 36 be
       -0.04489554 1.1092099 -0.31538075 -0.17813687
000200 15 6d a2 3e c4 ea ce be 33 98 b7 3f 3b 51 12 bf
       0.31723848 -0.40413487 1.4343323 -0.571552
000210 04 14 80 3f 92 f0 10 40 b5 24 b5 3e 8e 46 96 3c
       1.0006108 2.2646832 0.35379568 0.01834419
000220 fb 8e b0 be 51 4f 28 3f 5f 15 9e 3e 16 1f 40 be
       -0.34484085 0.6574603 0.3087568 -0.18761858
000230 54 62 ed 3e 2a fc 0a 3f 54 e4 fc be fa c6 e2 be
       0.4636408 0.5429102 -0.4939295 -0.44292432
000240 bc 28 29 be 5a ed 56 bd e3 f1 c1 bd 2c d2 3a bf
       -0.16519445 -0.05247245 -0.09469964 -0.72976947
000250 08 f4 b0 3e 06 b3 c9 3e 8f 27 24 be 79 1a 0d bf
       0.3456118 0.39394397 -0.16030715 -0.5511852
000260 e8 df 78 bf bf 19 90 3f 5f 9f 7a bf ac 67 1f 3f
       -0.97216654 1.1257857 -0.9789943 0.62267566
000270 68 d5 f3 3c ee 38 61 3e 09 af 92 3f 39 76 80 40
       0.029764846 0.21994373 1.1459666 4.0144315
000280 6d 72 19 be ea f6 44 3e 56 40 9f 3c 78 37 d3 bd
       -0.14985056 0.19234815 0.019439857 -0.10313314
000290 24 69 08 3e 8f 87 2e bd c0 69 68 3e 65 42 68 be
       0.13321358 -0.042609747 0.2269659 -0.22681578
0002a0 a6 0f 5a 3f 2f 22 cf 3e 53 6e fd 3e 73 8d 84 3f
       0.8518013 0.40455768 0.49498233 1.0355667
0002b0 a1 22 2d be 37 e1 8d 3e 0e b4 1b be ed b4 99 3d
       -0.16907741 0.27710888 -0.15205404 0.07505212
0002c0 83 a7 01 3f 30 1d 07 3d 45 07 51 3e 6f 64 a7 3f
       0.5064623 0.03298682 0.2041293 1.3077525
0002d0 e1 8e 57 bd db 6a 97 3e df 21 65 3f b6 47 ad bf
       -0.052626494 0.29573712 0.8950481 -1.353751
0002e0 0e 73 ce 3f f3 04 3c bf de 41 8e 3e 83 00 8f 3e
       1.6128862 -0.7344505 0.27784628 0.27930078
0002f0 c1 bc e3 3e 46 a1 31 bf 6c ad 70 3e 96 67 6e 3e
       0.44479945 -0.6938671 0.23503655 0.23281702
000300 cc e0 13 be d2 42 af be 00 52 7a 3e ad 46 96 3e
       -0.14441222 -0.34230667 0.24445343 0.29350796
000310 56 31 a8 3e 07 c7 cb 3d 19 7a f0 bd a3 1a 20 bd
       0.3285014 0.09950071 -0.11742038 -0.039087903
000320 bb 89 29 be 8b c5 5a 3e 24 72 31 bf 83 3f f4 3e
       -0.16556446 0.21364419 -0.6931479 0.47704706
000330 ff 4f 45 3e aa c9 ba bf f5 ae c5 bd 6f d7 13 bf
       0.19268797 -1.4592793 -0.09652511 -0.577506
000340 36 aa 72 bf 1e 75 c2 3f 78 97 58 3e cb 65 94 3e
       -0.9479097 1.5191991 0.2115153 0.28983912
000350 ed 4d 55 3e ec 50 5a 3e 2b 13 e6 3d b6 0c d5 3c
       0.20830508 0.21319932 0.11234125 0.026007038
000360 e6 d8 0e bd 1d eb 04 bf 39 cd 90 be 78 b8 a2 be
       -0.03487482 -0.51921254 -0.28281572 -0.31781363
000370 25 3e 42 3f 2b 6c c9 bf 53 92 e6 3e 30 f8 e4 3e
       0.75876075 -1.5736135 0.45033512 0.44720602
000380 22 56 33 bf 18 f8 11 3f 6e 19 cf be a8 04 50 bb
       -0.70053303 0.57019186 -0.4044909 -0.0031741057
000390 dd 79 88 be cf 43 37 be 1b 50 03 be 7c e0 8f bd
       -0.26655474 -0.1789696 -0.12823527 -0.07025239
0003a0 81 5f 2c 3e 3e a1 3d 3f 8b 7e 9a bd 9c e8 92 bd
       0.16833307 0.7407416 -0.075436674 -0.07173273
0003b0 79 ab 79 bf 82 2c 92 bf 56 29 1e 3e 8c c9 55 be
       -0.9752727 -1.1419833 0.15445456 -0.20877665
0003c0 ac b0 a0 3d 5e 3e 84 be 8f a4 10 3f 20 fd 65 3d
       0.078461975 -0.25828832 0.56501096 0.056149602
0003d0 01 0b 32 be 64 de b7 be a8 75 26 3d da f0 24 bf
       -0.1738701 -0.35911858 0.04063955 -0.6443001
0003e0 c7 6e 37 3f 52 41 51 3f 0c 98 04 be 4d c5 a0 be
       0.7165341 0.81740296 -0.12948626 -0.3140053
0003f0 22 c6 f5 3b 6a 88 12 3d c5 2c ab 3d 89 a7 9e be
       0.007500426 0.035774626 0.083581485 -0.30987194

bias f4 [128]
000000 e5 71 bd bf 40 7f fd 3f 96 80 c7 bf a1 27 72 bf
       -1.4800383 1.9804459 -1.5586116 -0.9459172
000010 24 bd d9 bf e3 96 ac bf 30 0d a4 bf cf b5 79 bf
       -1.7010846 -1.3483547 -1.2816525 -0.9754304
000020 ac 9b 05 c0 f7 dd e0 bf 1c 70 9e bf 26 94 f9 bf
       -2.0876265 -1.7567738 -1.2377963 -1.9498336
000030 13 c4 fd bf 3a 28 8c be 18 e6 81 bf 92 4f e4 bf
       -1.9825462 -0.2737444 -1.0148344 -1.7836783
000040 2b a0 60 3f 9b 32 bb bf 2b a1 4d bf df 8c 09 3f
       0.87744397 -1.4624819 -0.8032405 0.5373058
000050 b7 29 df 3d 6a 5e 84 bf 9d 36 82 bf 83 a8 84 bf
       0.10896628 -1.0341313 -1.0172917 -1.0363926
000060 8d c8 28 bf ac b4 36 bf c4 b2 74 bf 69 d1 a3 3c
       -0.65931016 -0.71369433 -0.95585275 0.019997315
000070 64 7e d8 bf 2b c5 9a bf 12 61 16 c0 3e 33 e2 bf
       -1.6913571 -1.2091421 -2.3496747 -1.7671888
000080 e2 a0 cc bf b9 dd 8e bf dc 6c ac bf 96 67 72 be
       -1.5986598 -1.1161414 -1.3470721 -0.23672327
000090 32 a0 c8 bf 20 85 8f bf 76 6e 91 bf 6d ff ac bf
       -1.5673888 -1.1212502 -1.1361835 -1.351545
0000a0 c1 a8 dc bf 41 ae 80 3e e7 53 d8 bf 11 41 0e c0
       -1.7239 0.25132945 -1.6900605 -2.2227213
0000b0 6f cf 7a bf 0c 9e 89 3e 4a 81 2c 3f 0b 2b d3 3e
       -0.9797277 0.26878393 0.6738478 0.41243777
0000c0 3b 68 50 bf cc 04 b3 bf f4 11 c9 bf 7b 6a c8 bf
       -0.81409043 -1.3985839 -1.5708604 -1.5657495
0000d0 9d ff 35 c0 34 b1 ac bf b4 ef e5 3e 60 82 1c bf
       -2.8437264 -1.3491578 0.4490944 -0.61136436
0000e0 45 35 7f bf 46 be 20 bf 54 d9 92 3a b1 50 1d 3f
       -0.9969066 -0.62790334 0.0011203685 0.6145125
0000f0 1a d0 09 c0 ea 1c 07 c0 d2 d5 b5 bf d5 c7 ba 3e
       -2.1533265 -2.1111398 -1.4205878 0.36480585
000100 02 d2 2c bf ca 61 0b 3f f5 97 ca bf 43 f6 a0 3f
       -0.67507946 0.5444609 -1.5827624 1.2575153
000110 2c 93 b6 bf 95 5c 00 c0 a9 ff aa bf 5c 37 a8 bf
       -1.4263663 -2.0056508 -1.3359271 -1.3141894
000120 4c c0 3c 3f b7 85 6c bf b3 b9 dd bf e6 73 73 bf
       0.7373092 -0.9239153 -1.7322296 -0.9509872
000130 59 22 14 40 16 2a a8 bd af 7c b5 bf 51 0d 13 c0
       2.3145964 -0.08211152 -1.4178675 -2.2976878
000140 43 94 54 bf 86 f6 2e bf a3 42 08 c0 a0 1b 76 3f
       -0.8303873 -0.68344915 -2.1290672 0.961359
000150 10 07 9b bf 07 d2 5a bf d3 f4 6e bf 17 fd b1 bf
       -1.211153 -0.85476726 -0.9334232 -1.3905362
000160 eb bb f5 be 4b 95 99 bf da 22 eb bf fc f4 8f be
       -0.47994933 -1.1998686 -1.8370011 -0.28116596
000170 30 8e ec be 89 bb 61 bd a7 13 0a 3e 51 26 9d bd
       -0.4620223 -0.055110488 0.1348406 -0.07673324
000180 ec 9a 68 bf 33 c5 cb bd 8b 06 95 bf 22 b1 c6 bf
       -0.9086139 -0.09949722 -1.1642622 -1.5522807
000190 8f 9c 9c bf e4 c7 80 bf 05 89 6f 3e d5 89 c8 bf
       -1.2235278 -1.0061002 0.23392113 -1.5667063
0001a0 88 0d 86 be 3e ad e6 bc ae 0f 86 3f 6e 74 bd bf
       -0.261822 -0.02815878 1.0473535 -1.4801157
0001b0 32 1a b1 bf 06 d4 dc bf 7f 6d 2c bf c4 78 2e 3d
       -1.3836119 -1.7252204 -0.6735458 0.04259564
0001c0 21 fd 75 bf a4 86 1a c0 22 93 22 be 6e 48 da bf
       -0.9608937 -2.4144678 -0.15876439 -1.7053354
0001d0 9e ff 55 3e e1 86 4c be 9d 84 50 bf b7 29 23 bf
       0.20898291 -0.19973327 -0.8145235 -0.63735527
0001e0 9c d6 d4 bf 8d fc 9c be 86 ed 1b c0 06 b1 00 c0
       -1.6627994 -0.3066143 -2.4363723 -2.0108047
0001f0 dc b3 30 bf 3b 0d eb bf a1 8f c0 bf 47 c1 2b bf
       -0.69024444 -1.8363413 -1.5043832 -0.6709179

weight f4 [128, 128]
000000 d6 4a ab bd 7a 06 42 bd e1 65 c7 bd a9 2f 92 bd
       -0.08363883 -0.047369458 -0.09736229 -0.07137997
000010 4c a9 d0 bd bb a5 97 be 68 07 df bd ee cc d5 3c
       -0.10188541 -0.2961863 -0.108900845 0.026098695
000020 3a c6 81 bd 94 39 19 be e0 21 1d bd c4 88 36 3c
       -0.06336637 -0.1496337 -0.038362384 0.011141006
000030 3f 50 a4 be 5a 3d e2 3c eb b2 16 3d 74 a4 65 be
       -0.32092473 0.027617145 0.036791723 -0.22426015
000040 d7 cd e6 bd 2f e3 dc 3c bc b9 eb bd 15 72 cb 3c
       -0.112697296 0.026963798 -0.115100354 0.024834672
000050 d0 51 d1 bd 49 89 82 3c c7 e9 d7 bd fa fd e8 bd
       -0.102206826 0.015934603 -0.10542636 -0.11376567
000060 72 2b 64 bc 00 87 16 bc 91 5f 66 be a6 2e 6c 3c
       -0.013926374 -0.00918746 -0.22497393 0.014415419
000070 55 92 03 be e7 01 96 be d6 e6 22 be 52 64 16 bd
       -0.1284879 -0.29298326 -0.1590837 -0.036716767
000080 49 37 87 bd cd 63 08 3d f8 74 d8 bd 48 4a 9a 3d
       -0.06602342 0.033298302 -0.10569185 0.07533699
000090 87 92 0b 3d 3d 26 b1 3b c9 c5 23 3c f7 8d b8 bd
       0.034075286 0.0054061697 0.009995886 -0.09011453
0000a0 a1 e6 b4 bc 24 03 84 3d 98 51 8b be 8f 5c 86 3d
       -0.022082629 0.064459115 -0.2721069 0.06560623
0000b0 5e 84 55 be 3e 6b f2 bd 6f be 85 be c7 b5 97 bd
       -0.20851275 -0.11836861 -0.26121852 -0.07407718
0000c0 af 4a 95 bd bb f6 5f bb 4f 10 eb 3d 67 c4 29 3d
       -0.072896354 -0.0034174162 0.1147772 0.04144707
0000d0 58 5f 2b be c6 ba 77 be 68 45 8b bc 5c 5d f6 bd
       -0.1673559 -0.24192342 -0.017000869 -0.12029526
0000e0 4a 65 0c 3d 7f 47 89 bd 1f 7a ce bd ea 6d 43 be
       0.034276284 -0.0670309 -0.100818865 -0.19084898
0000f0 a1 75 aa 3b 56 74 86 3d c2 a0 12 be 5e 07 d2 bc
       0.0052020107 0.06565158 -0.14319137 -0.025638279
000100 99 6c 28 be 69 46 49 3c b3 0c a3 bd 94 9f 92 be
       -0.16447677 0.0122848535 -0.079614066 -0.28637373
000110 60 c6 83 be fd 95 d1 3c dc ae 01 bc 08 d3 3b 3d
       -0.25737286 0.025584215 -0.007915225 0.045855552
000120 7e b3 bb bb b3 b2 2f be fd a4 9d bd 6d ec 85 bc
       -0.0057281842 -0.17158012 -0.07697485 -0.016348088
000130 a9 a0 7b 3c 3f 2f 8c bd 26 62 09 3d d4 c4 4f bd
       0.015358129 -0.06844949 0.033540867 -0.05072482
000140 6e a3 30 be 44 23 d5 bd b9 54 55 bd 7a 58 d3 3c
       -0.17249843 -0.10407117 -0.05208275 0.025799025
000150 eb 76 d2 bd 62 79 7c be 6e 0d 48 be f8 45 74 be
       -0.10276588 -0.24655679 -0.19536373 -0.23854816
000160 7b ac 5f bd 25 5c 9c be ad 9d ac bc de ee 89 bd
       -0.05460785 -0.3053905 -0.02107128 -0.067350134
000170 3f a7 6e be 0a c3 10 3d ff 37 b7 bd 03 35 41 bc
       -0.23305987 0.035342254 -0.08946227 -0.011792424
000180 ab 10 c1 bd 35 1e 9d be fc 95 06 bd 9e 17 4e be
       -0.09427007 -0.3068711 -0.03285788 -0.20126197
000190 77 d2 a8 bd 4e bf 3b be 40 62 57 bd f3 90 3f bd
       -0.08243268 -0.18334696 -0.052583933 -0.046769094
0001a0 6e 5f 16 bb c2 5c 48 be da c6 70 bd 55 1b 08 3c
       -0.0022945064 -0.19566634 -0.05878339 0.008307298
0001b0 49 90 60 3c 42 64 9d 3b a2 39 41 bd b5 2a ed bd
       0.013706275 0.0048032114 -0.047174104 -0.11580411
0001c0 4e cd 36 3b e8 82 91 3c 53 cd 4f 3d 0c 9d 4e bd
       0.0027893367 0.017762616 0.05073292 -0.05044274
0001d0 87 08 16 3c b9 c6 8c ba 5c f1 81 bd de a9 8a bd
       0.0091573065 -0.0010740376 -0.06344864 -0.06770681
0001e0 a2 2e 05 3e 5f cc 3f bd 18 59 fa 3d b1 eb 90 bd
       0.1300607 -0.046825763 0.122240245 -0.070762046
0001f0 ee dd 7d be 67 94 b2 bd a7 be 67 be e0 db 79 3c
       -0.2479169 -0.08719712 -0.22631322 0.015250176
000200 5b b0 05 be 7a 40 df bc 98 e3 00 be f6 35 bb bd
       -0.13055556 -0.027252425 -0.1258682 -0.091411516
000210 a0 7d cd 3c d7 aa f7 bc 04 cf 69 bd d5 73 89 bc
       0.025084317 -0.03023283 -0.05708219 -0.016778866
000220 ce 7a be bd ca 17 00 be 36 e5 47 bc e0 5f 00 be
       -0.09300767 -0.12509075 -0.012200644 -0.12536573
000230 a0 19 c5 3c 3d 30 59 bc 13 2e 35 3b dd 7a ca bc
       0.02406007 -0.01325613 0.002764587 -0.024716789
000240 6e b4 03 3c 34 d3 f5 bb 99 2f ed bc e4 69 20 bd
       0.008038623 -0.007501984 -0.02895336 -0.039163485
000250 f0 e1 a1 3c d6 0f 22 bc 80 7c 40 39 ad e8 01 be
       0.019761056 -0.009891471 0.00018356927 -0.12686415
000260 72 db 6e 3c 2a f3 b3 bc 2a 1b aa 3d 0a b1 f4 bd
       0.014578687 -0.021966536 0.083059624 -0.1194783
000270 fb 45 b8 bd b1 bc 55 bd c2 d6 35 bc f5 1d f7 3c
       -0.08997723 -0.052181903 -0.0110985655 0.030165652
000280 05 34 c4 bc 5b a3 18 be af f0 a5 bd 95 27 3d bd
       -0.023950586 -0.14906065 -0.081025474 -0.046180326
000290 1f 2a 03 be da f5 4d 3c f6 b3 5a bb aa fd 6d bc
       -0.12809037 0.012570823 -0.0033371425 -0.01452581
0002a0 76 93 d2 3c 95 e7 31 3d 10 3e 0d bd ab 08 34 bd
       0.02570508 0.043433744 -0.034483016 -0.04395358
0002b0 19 c1 12 3c 4b 89 3b bd e2 5a 68 bd 3e 34 b4 bd
       0.008957171 -0.04578523 -0.056727298 -0.08799027
0002c0 f2 ca 93 bd c3 3b a1 bc 5b f1 b7 bd f6 a1 8d bd
       -0.07216443 -0.019681817 -0.08981582 -0.06915657
0002d0 dd b1 94 bd 4f 5f 99 bd 7a b3 9e bb ec 69 08 3d
       -0.07260487 -0.07488882 -0.0048431726 0.03330414
0002e0 d7 8e 87 bc 2e e8 4f 3d af 5f 0b bd 80 a3 9c bd
       -0.016547604 0.050758533 -0.034026798 -0.07648373
0002f0 7c 4a 30 bd 8d 64 25 be 56 73 4c 3c a9 d6 ec 3b
       -0.043039784 -0.16151638 0.01247867 0.007227738
000300 42 1f 2a bd da 77 e6 3c 44 45 34 3c 23 cc ce bd
       -0.041533716 0.028133322 0.011002842 -0.1009753
000310 74 c2 a9 bd 8a ff c1 3b dd 44 d4 3c f7 7c c7 bd
       -0.08289042 0.005920355 0.025911743 -0.09740632
000320 5d 05 15 bc 0e 03 11 be 2a 4c 20 bb a2 4b 09 bd
       -0.009095517 -0.14161322 -0.002445946 -0.033519395
000330 99 fc 45 be 15 1d 72 bd 8c db b7 bd f8 f8 78 3c
       -0.1933464 -0.059109766 -0.08977422 0.0151960775
000340 e8 58 3b bd b9 24 61 3d 66 36 96 bd aa 43 a3 bd
       -0.045739084 0.054966662 -0.073345944 -0.0797189
000350 e0 7a 69 bc c3 38 b8 3a e5 b0 b4 bc 74 7c e6 bc
       -0.014250487 0.0014055002 -0.022057006 -0.028135516
000360 9f 3e 0c 3d 8e 05 14 3b 2d c4 0a 39 66 f3 06 bb
       0.034239408 0.0022586319 0.00013233787 -0.0020591854
000370 e5 40 d9 bc c2 d4 05 bd 11 26 89 3b 55 d1 91 bd
       -0.026520202 -0.032673605 0.004185446 -0.07120005
000380 25 f8 05 bd 87 2f f6 bc 97 2f be 3c 84 c5 1b bd
       -0.032707352 -0.03005196 0.023216052 -0.038030162
000390 a5 79 e5 bc e7 b8 8f bd 95 cf c5 bd 4c 7c 01 bd
       -0.028012106 -0.07017689 -0.09658734 -0.03161268
0003a0 25 dd 96 bc a0 71 0a bd 77 7e 01 be 12 db ca bb
       -0.018415997 -0.033799767 -0.12645899 -0.006190666
0003b0 d6 ea b6 bc 58 e3 c3 3a 8e 9a d8 bc 9f d7 09 be
       -0.022328775 0.0014945073 -0.026440885 -0.13461159
0003c0 5b cb 8a bd 58 99 93 bd 88 ef 26 bd 89 7b e2 bd
       -0.06777068 -0.072069824 -0.04075578 -0.11058719
0003d0 98 09 84 bd 56 81 b3 bd 59 9a 96 bd 62 5b 29 be
       -0.06447142 -0.08764903 -0.07353658 -0.16538766
0003e0 05 80 23 bd ca 89 8f bd 67 a0 51 3c 3f cd 34 be
       -0.03991701 -0.07008703 0.012794591 -0.1765642
0003f0 75 1c 89 bd c2 db 89 bc 68 89 b6 bd 0b cf 7b bd
       -0.06694881 -0.016828422 -0.08912927 -0.06147675

bias f4 [128]
000000 e6 87 a1 be 6d 26 bd bc a3 dd 3b 3e bc 9c 50 3d
       -0.31548995 -0.023089612 0.18346266 0.050930724
000010 57 9b f0 bd 1f 41 63 bd 4e ee 46 be 0a 0f ba 3f
       -0.11748379 -0.055482026 -0.19426844 1.453584
000020 51 4e 62 bd 9b cd 5d be b2 39 96 3f 1d b7 2b 3f
       -0.05525047 -0.21660464 1.1736357 0.67076284
000030 6b 1b 42 3f 13 60 9a bd a3 fc fa bd 7c 8a 8d bc
       0.75823087 -0.07537856 -0.12255218 -0.017277949
000040 a3 3b 05 bf 44 32 5f 3f ed 66 56 3f 84 42 dc bd
       -0.52044123 0.87186074 0.837508 -0.10754874
000050 58 6b d8 bc 5c 7b 29 3f db 30 95 3f dc 84 88 3f
       -0.026418373 0.66203856 1.1655535 1.0665545
000060 82 67 0d be 5c 57 a7 be 47 9b 10 bf 80 b2 4c bd
       -0.13809016 -0.32683837 -0.56486934 -0.04997492
000070 cf bc d5 3f 1b 4e 2f bd 02 7b 9c 3f d8 89 7e 3e
       1.6698245 -0.042799097 1.2225039 0.2485727
000080 13 56 f0 bd 7a a4 e3 bd 53 60 1f 3f 92 5e 3a 3f
       -0.11735167 -0.11115356 0.62256354 0.7280055
000090 8a 5d df 3e 04 70 8d bd 72 4e 51 3f cf 09 44 bd
       0.43626052 -0.06906131 0.81760323 -0.047860917
0000a0 41 b5 a9 be 2a da 14 3f 02 bf 90 be 79 0f e2 be
       -0.33146098 0.5814539 -0.28270727 -0.4415243
0000b0 4f 80 5d bd 0c f1 70 bd 78 1e b5 3c 64 7f 9f be
       -0.054077443 -0.05882363 0.022109255 -0.3115188
0000c0 60 02 99 3e c3 1b bb 3f c3 6c 95 3e 12 80 43 bd
       0.29884624 1.4617847 0.2918454 -0.04772956
0000d0 cf 5e fa be 3b 42 06 40 c6 c2 16 bd b4 2b c6 3e
       -0.48900458 2.0977924 -0.036806844 0.38705218
0000e0 97 ba bf 3f 88 cf d9 39 c1 e1 3d bd 22 d7 93 3c
       1.4978818 0.00041544088 -0.046357874 0.01804692
0000f0 70 f6 c6 be 24 2b f5 bd 50 7b 15 bd e5 44 c4 bd
       -0.38859892 -0.11971119 -0.036494553 -0.09583453
000100 d2 ab fa 3e d0 b3 d2 3c 84 06 e4 bd 99 dc 8a 3f
       0.48959213 0.025720507 -0.11134055 1.0848571
000110 0b e5 2b 3f 5d 8f 15 be 1f 66 09 be f3 f3 b9 3e
       0.67146367 -0.1460547 -0.13417862 0.3631893
000120 b9 e8 d3 bd 2a 63 07 3e 98 53 a8 be 60 43 d6 bb
       -0.10347123 0.13221422 -0.32876277 -0.0065387934
000130 c1 f9 86 bd d0 db 24 be 1f e2 13 bf ea 82 a7 3f
       -0.065906055 -0.16099477 -0.5776691 1.3086827
000140 ba 4e 72 3f 28 73 c5 bd 0a dd ab 3e 22 69 b3 bc
       0.9465138 -0.09641105 0.33567077 -0.021900717
000150 b3 ec 1e 3f af 7a 90 bd a5 c4 b8 be 46 8a ac be
       0.62079924 -0.0705465 -0.36087528 -0.33699244
000160 a0 c3 5b bf ab 07 95 be c3 2f 22 3f 32 ca 7d be
       -0.85845375 -0.29107413 0.6335413 -0.24784163
000170 9c 0a 65 be 2b 47 b6 3c c7 84 97 bd f0 b1 00 be
       -0.22367328 0.022250732 -0.07398372 -0.12567878
000180 03 9c 99 be 8a 1d b6 bd 80 5e dc be bc 2c ac 3e
       -0.3000184 -0.08892353 -0.43040848 0.3362788
000190 ed e9 a2 be 73 70 1a 3f 34 5f 9a 3f e5 85 ba be
       -0.31819096 0.60327834 1.2060304 -0.36430278
0001a0 d0 61 de 3f 6c 94 7e 3e 29 38 9e be 71 ff 8c bd
       1.73736 0.24861306 -0.30902222 -0.06884659
0001b0 87 51 e6 bd b5 6b 39 bd e4 b6 a2 3e 1b cd d6 3e
       -0.11246019 -0.045268733 0.3178016 0.41953358
0001c0 10 99 55 3c 6b 98 df bc 68 90 ae 3f a2 8f 87 bc
       0.013036981 -0.027294358 1.3637819 -0.016547982
0001d0 c9 17 ac be 7a 18 4b 3f 8b 21 0b 3f 6f 74 ae bd
       -0.33611897 0.79334223 0.5434806 -0.08518302
0001e0 3a 42 9b 3c e3 d5 d5 be 94 2d 87 be 68 ba b4 bd
       0.018952478 -0.41764745 -0.2640196 -0.08824617
0001f0 ef 30 95 be bf a5 de 3f a9 9a 35 bd 18 a6 04 be
       -0.29138896 1.7394332 -0.04433695 -0.12953985

weight f4 [5, 128]
000000 d9 da e1 3c e5 77 88 3c de 44 2f be 75 c0 88 3d
       0.027570175 0.016658733 -0.17116114 0.06677333
000010 e2 ce a2 3e e2 dc b6 3c 72 9b d3 bb 1e 71 a0 bd
       0.31798464 0.022322122 -0.0064577395 -0.078340754
000020 0f 53 b9 3c 30 c2 61 3e cf 58 f6 3b f6 02 11 be
       0.022622613 0.22046733 0.007517911 -0.14161286
000030 70 d7 3e bd 32 67 0f 3e e8 9d 31 bd 0b ee b8 bc
       -0.046592176 0.1400421 -0.04336348 -0.022574445
000040 97 ad e8 3d d2 10 af bd 6e 37 9b bd 9b 09 d4 3c
       0.11361235 -0.0854813 -0.07578932 0.025883486
000050 40 4f a4 3c a1 17 69 3e 13 5c 72 bd fc 25 45 be
       0.02005732 0.2276292 -0.05916984 -0.19252771
000060 a1 23 fc 3c 7e db 9a 3d aa 26 52 be 8c e1 f7 3c
       0.030778708 0.07561396 -0.20522562 0.030258916
000070 2c c0 22 3c 8e 41 70 bd 64 12 0c bd d9 dc d5 bd
       0.009933513 -0.058656268 -0.034197226 -0.10442514
000080 44 1d 73 3c d5 f4 05 3d dd b7 2d bd f6 a3 ad bd
       0.01483852 0.032704193 -0.042411674 -0.08478539
000090 cf 46 fa 3e 48 63 fd 3b 90 81 4c b8 63 67 19 bc
       0.48882148 0.0077327825 -4.8758055e-05 -0.009363028
0000a0 c4 65 cd 3d 30 2f 25 be db 56 4c be 69 57 1d bc
       0.10029176 -0.16131282 -0.19955008 -0.00960336
0000b0 03 6c e1 3c eb 04 be 3c 8b fd 6c bd 04 a3 2e bd
       0.027517324 0.023195704 -0.057858985 -0.042635933
0000c0 3c 7b 3a 3f d3 b7 2b 3e 76 27 83 3e 25 ef be bd
       0.7284429 0.16769342 0.25616044 -0.09322957
0000d0 00 24 d7 3d ee b5 b6 bd cd a3 2e bd ff 2c 28 bd
       0.10504913 -0.08921419 -0.04263668 -0.041058537
0000e0 38 3b 18 be 22 93 1d bc 79 99 22 3d 1b 35 8f bd
       -0.1486634 -0.009617599 0.039697144 -0.06992551
0000f0 bb b7 5a 3e 31 93 c0 3c f7 8c 0a 3e 70 2d b3 bd
       0.2135915 0.023507686 0.13530336 -0.08748901
000100 65 4b 20 be 6e 34 be 3c 60 e4 2d 3c ba da 8e bd
       -0.1565376 0.02321836 0.010613531 -0.069753125
000110 82 65 a1 bd 7d 61 2d bc 19 2f 1a 3d 6d 66 71 3c
       -0.07880689 -0.010582325 0.037642572 0.014733893
000120 9f c7 d2 3c df c3 36 3d 22 f2 d1 bd 06 53 a7 bd
       0.025729952 0.04462039 -0.10251261 -0.08170132
000130 d6 71 06 3d ec 38 96 3c 69 98 ef 3c 91 85 92 bd
       0.032823406 0.01833769 0.02924748 -0.07154382
000140 34 a6 39 be 57 27 e7 3b ed 5c 01 3c fd d2 0b 3d
       -0.18129808 0.00705425 0.00789569 0.03413676
000150 8b e9 eb 3d b9 6d 3c 3d 7f 64 5c be e7 78 8e be
       0.11519154 0.046003077 -0.21522711 -0.27826616
000160 f1 af 07 be 97 6c 64 3d 6d 60 ed 3e e2 b5 01 bd
       -0.1325071 0.05576762 0.4636263 -0.031667598
000170 64 d6 c3 bc b7 5b cb 3c c0 01 b9 3c 97 38 38 bc
       -0.02390594 0.024824006 0.022583842 -0.011243961
000180 7d 8e 4d 3d 90 53 6d 3c 1e 85 b6 be ec 17 19 bd
       0.050184716 0.014485255 -0.35648435 -0.03737633
000190 bb 18 08 be e9 e0 41 3d 3e a8 ee bd 2d ba 61 be
       -0.13290684 0.04733363 -0.116531834 -0.22043677
0001a0 f4 e6 e8 bd da c3 81 be 48 34 81 3e 75 c2 c0 3c
       -0.11372176 -0.25344735 0.252352 0.023530224
0001b0 12 57 f2 3b b5 53 f5 bd f2 5f 02 3e b2 80 32 3d
       0.0073956335 -0.119788565 0.12731913 0.043579765
0001c0 14 63 c2 3c 1c aa a3 3c 78 f8 24 3d b9 97 8c 3d
       0.023728885 0.019978575 0.04027602 0.06864876
0001d0 5a 60 3c bd 80 28 4d be a3 4b b1 bd ea 17 d9 3c
       -0.045990326 -0.20034981 -0.08657005 0.02650066
0001e0 82 19 c2 3b 35 0b 0e 3d 23 d8 3a 3e f5 cf c5 3c
       0.005923451 0.034678657 0.18246512 0.024147013
0001f0 bb 3f 1c 3e c0 a1 15 3d eb b9 31 3d 7c b4 0c be
       0.15258686 0.03653121 0.043390196 -0.13740724
000200 7d 57 27 3e fe 21 17 bd d1 2b d2 bd b3 a4 b8 be
       0.16341968 -0.03689765 -0.102622636 -0.36063156
000210 62 c3 d3 be 85 69 f3 bb 38 05 0f bf a9 05 18 3f
       -0.41360003 -0.0074283504 -0.5586734 0.59383637
000220 b0 a1 59 bc c7 71 6e be 73 b9 07 3e 6b 9d 40 3e
       -0.013283178 -0.2328559 0.13254337 0.1881005
000230 05 9b 8a be 6b aa 69 3c f6 3e 1e 3d d8 0d 04 3d
       -0.27071396 0.014261822 0.038634263 0.032239765
000240 b8 a4 26 be e1 0d 3a bd e4 4c c8 bb 17 ec 75 bc
       -0.16273773 -0.045423392 -0.0061126817 -0.0150099015
000250 ce 2b 04 3d 7c 13 a0 be c6 49 37 3e b5 ed 4c be
       0.032268338 -0.31264865 0.17899236 -0.20012553
000260 05 18 c1 3c db 58 dd 3e cc 49 a4 be b0 71 35 3b
       0.023571024 0.43231854 -0.32087553 0.0027686171
000270 4f a7 1f be 33 d6 1d 3d 33 fa 8c be fc 65 50 be
       -0.15591167 0.038534354 -0.27534637 -0.20351404
000280 67 8b 27 ba 90 21 bc 3b 7a 77 ed 3e 34 27 8b be
       -0.0006391317 0.0057413056 0.46380216 -0.27178347
000290 8f 8a 0e be f6 70 a6 bd 0b 01 42 be 38 f5 16 3e
       -0.13920043 -0.08127014 -0.1894571 0.14741981
0002a0 ce 1b 4e 3c f5 34 af 3e cc 69 1b 3e 76 c9 cf bd
       0.012579871 0.3422009 0.15177077 -0.101458475
0002b0 f4 16 1d 3c 5a 47 1a bd ba f4 f3 be 28 53 dc 3e
       0.009587992 -0.037665702 -0.4764765 0.43032193
0002c0 ee 17 72 bf af d4 01 bf b5 0a 0f be cd 81 ff 3d
       -0.94567764 -0.50715154 -0.13968928 0.124759294
0002d0 73 1e 84 3e 9f 10 ba be d5 39 14 bd 29 58 03 bf
       0.2580448 -0.36340806 -0.036187965 -0.51306397
0002e0 a2 ec 88 be 89 6d a6 3e bb 3d 31 3d 8a df a5 3d
       -0.26743037 0.32505444 0.04327176 0.08099277
0002f0 b1 87 68 be d3 e0 98 3c 50 e8 9a 3c 54 73 83 bc
       -0.22708012 0.018661892 0.018909603 -0.016046204
000300 ca f8 d3 3e 80 20 5b bd 55 bc 13 ba 48 17 ec be
       0.41400748 -0.05349779 -0.00056356686 -0.46111512
000310 31 4b 1b 3e 84 35 1b 3a c7 83 45 bd 52 94 4b be
       0.15165402 0.0005920755 -0.048221376 -0.19880798
000320 a3 75 1a 3c 7a f3 c7 3e 64 1e 80 bd 4a 66 21 bd
       0.009427461 0.39052945 -0.062557966 -0.03940419
000330 9c 2f 0a bc a0 08 11 3d cc 10 3a be 32 9b 2f be
       -0.0084342025 0.035408616 -0.1817047 -0.17149046
000340 3e f1 82 be bf 82 21 bd c6 55 3d 3c 54 90 b6 bc
       -0.25574678 -0.03943133 0.0115560945 -0.022285618
000350 f5 86 83 3e 2f 7e cc bc 5c 12 28 3f fc cb 2c 3e
       0.25688902 -0.024962513 0.65653014 0.16874689
000360 c9 06 08 be bc 8f 8c be 64 ce f8 3c 38 47 38 bd
       -0.13283838 -0.2745341 0.030371852 -0.044989794
000370 59 f1 67 bd 25 02 cb bc 2a 09 ba 3c 44 16 01 be
       -0.05662665 -0.024781296 0.022709448 -0.1260615
000380 51 13 42 3c f7 33 70 3b 60 6f a5 be fc 33 33 bc
       0.011845426 0.0036652067 -0.32311535 -0.010937687
000390 1b 7a 85 bd 8f af cf be d6 c6 db be 06 0c 61 be
       -0.065174304 -0.40563628 -0.42925137 -0.21977243
0003a0 5b d6 1c be 7d 9c be 3c aa 4f 54 3e 0d a9 84 3b
       -0.15316145 0.023267979 0.20733514 0.0040484727
0003b0 d3 47 50 bd 95 0f 9a b9 56 d7 b3 bc 73 fc 07 bf
       -0.050849747 -0.00029384778 -0.021953266 -0.5311958
0003c0 bd 48 dc 3c ff 20 30 3b 3d 2d c5 3e ca 10 12 bd
       0.026890153 0.0026875136 0.38511077 -0.035660543
0003d0 51 d0 34 3d 55 30 43 3e 06 48 b1 3c 7b da 2d bc
       0.04414398 0.19061406 0.021640789 -0.010611172
0003e0 9a fc 57 3a b1 d0 f3 be 2f 33 59 3e 2c 02 08 3c
       0.00082392397 -0.47620156 0.21210931 0.008301299
0003f0 08 a8 47 be 77 02 18 be 29 16 60 3d 56 e9 8c bd
       -0.19497693 -0.1484469 0.054708634 -0.06880443

bias f4 [5]
000000 4e 6d aa bf 20 7c 1c 3f 0d cc 96 be 8f 1f 20 be
       -1.3314607 0.611269 -0.29452553 -0.15637039
000010 f2 19 98 3e
       0.29707295

weight f4 [128, 26]
000000 09 e4 86 3e 72 cd ef be 12 f1 10 40 e3 d8 e1 be
       0.26345852 -0.4683643 2.2647138 -0.44110784
000010 96 4e 6d 3e d4 2f 04 3c 5e e6 bc 3d 5b 31 27 be
       0.2317451 0.008068044 0.092236266 -0.16327421
000020 12 43 93 be a9 6b 1e 3e e2 fe a0 3e 4e 7d 67 bf
       -0.28762108 0.15470757 0.3144446 -0.90425575
000030 67 ba f5 be e5 22 77 3e e3 db fa 3e 13 49 2f bf
       -0.47993776 0.24134405 0.48995885 -0.6847088
000040 34 d3 86 3e 75 6a 3a 3f 1e 5d b0 bf 0b da 46 3f
       0.2633301 0.7281869 -1.3778417 0.7767646
000050 9c 4e a5 3b de 0a 57 3d ef e7 81 3e a1 5e 17 bf
       0.0050447714 0.052500598 0.25372264 -0.5912877
000060 36 6e 8f 3e f5 96 6a be 32 a8 fd 3e 4e 97 1f 3e
       0.28013772 -0.22909148 0.49542385 0.15585062
000070 42 f3 bf 3e bc ed fb 3e d1 ca 16 be e5 36 6e bc
       0.37490278 0.49204814 -0.14725806 -0.014539455
000080 02 5d 16 3e d2 07 b7 3e 03 76 2e 3f d3 0c 85 be
       0.14683917 0.35748154 0.6814882 -0.25986347
000090 e8 22 a7 3e 84 6d e8 3c 8d 96 87 be 87 59 2d bd
       0.3264382 0.028372534 -0.2648205 -0.042321708
0000a0 f2 25 0b 3e 95 02 81 be 3b de 98 be 25 da a0 3d
       0.13588694 -0.25197282 -0.29857048 0.07854108
0000b0 fb 20 10 3e ab db 71 3d b9 f8 0f 3e ca 6c 7c be
       0.14075081 0.059047382 0.14059724 -0.24650875
0000c0 07 71 3b 3e 3e 5e f3 b8 c6 eb e0 be c2 85 72 3c
       0.18304835 -0.00011604697 -0.4392988 0.014802398
0000d0 e1 f0 9d be fe cc d1 bf 79 c9 86 bf fe a0 ac bf
       -0.3084784 -1.6390684 -1.0530235 -1.3486631
0000e0 8b 38 2a bd 8c 01 63 be 48 5a 52 3e 5e 0f 68 3e
       -0.04155783 -0.22168559 0.20542252 0.22662112
0000f0 fc ac ac bc 53 c5 16 bc 3b 55 04 bf 2d fb fb 3e
       -0.02107858 -0.009202319 -0.5169255 0.4921507
000100 78 8b d2 3d 8c c7 da 3c 16 f1 d9 be f2 b8 8e bf
       0.10280508 0.02670648 -0.42566746 -1.1150191
000110 d7 7a 48 3d 08 28 42 3e a6 35 02 bf f4 ea 9b 3f
       0.048945274 0.18960583 -0.5086311 1.2181077
000120 34 98 27 bf 40 04 0f bf 7a 17 df bd cf 01 d9 bc
       -0.6546662 -0.5586586 -0.1089315 -0.02649012
000130 98 78 95 bd 88 b2 bc be ed af 9c bf 17 78 f2 3e
       -0.07298392 -0.3685496 -1.2241188 0.47357246
000140 3c 6d a7 3f ce 6e 9c bf 34 8a a8 be b0 d9 91 be
       1.3080211 -1.2221315 -0.3291794 -0.28486395
000150 a1 d4 95 3d 19 f8 8d bc f9 ab fc 3d 2b b0 96 bc
       0.07315946 -0.017330216 0.12337489 -0.01839455
000160 7d b3 3b 3d 66 84 00 be 65 86 1f 3f 49 0c 73 bf
       0.04582547 -0.12550506 0.62314445 -0.9494062
000170 09 92 fa be 53 dc 57 3f 37 38 d0 be bb 2e c6 bd
       -0.4893954 0.84320563 -0.4066789 -0.09676882
000180 01 cb b1 bd 1c fb a0 3e 61 d5 e6 3d f2 77 8e be
       -0.08681298 0.3144158 0.112711675 -0.27825886
000190 c4 1d af bf dd 22 89 bf 79 f2 e2 be 9f ea 83 bf
       -1.3680959 -1.0713764 -0.44325617 -1.0305976
0001a0 6e eb 78 bf 8e 02 7f 3f c8 84 2e 3f 93 23 f5 3f
       -0.9723424 0.99613273 0.6817136 1.9151481
0001b0 2b 90 99 3d ce 25 06 bf a2 23 01 bf b6 a7 87 be
       0.07498201 -0.52401435 -0.50444996 -0.2649514
0001c0 0d 7b 10 bd e8 14 fb bd d4 1c 3a be f5 ed d2 be
       -0.0352736 -0.12259847 -0.1817506 -0.41197172
0001d0 3b ef 05 3f 5b fe b4 3e f6 b9 a3 be 65 dd ab 3d
       0.5231816 0.35350308 -0.31977814 0.08391837
0001e0 fc 60 08 bf 57 35 c4 be 64 46 76 3e db df 89 3f
       -0.53272986 -0.38321945 0.2405029 1.077144
0001f0 e1 18 a4 ba f2 b0 8b 3f d9 ce a4 be b2 b1 2b be
       -0.0012519622 1.0913374 -0.32189062 -0.16767004
000200 fd ba 87 3e e1 a8 e3 be 38 15 b6 3f 47 aa 14 bf
       0.26509848 -0.44464782 1.4225225 -0.5807232
000210 c6 1e 7d 3f be b7 0e 40 52 5a be 3e dd 98 8b 3d
       0.9887508 2.2299647 0.37178284 0.06816266
000220 52 3c b6 be 31 a5 2e 3f 00 94 99 3e d1 01 19 be
       -0.35592896 0.6822081 0.29995728 -0.14942099
000230 cc 01 e2 3e 93 92 0f 3f 54 59 f0 be 73 dd ec be
       0.44141996 0.5608303 -0.46943152 -0.46262702
000240 bf 85 38 be 00 e0 b6 bc bb ea c6 bd f6 cc 31 bf
       -0.1801977 -0.022323608 -0.0971274 -0.6945337
000250 29 01 a0 3e ea ce dc 3e 6d 4e 1a be 53 dc 03 bf
       0.31250885 0.43126613 -0.1506898 -0.51508063
000260 22 7a 7c bf f7 ba 8e 3f ce fc 70 bf 47 a3 16 3f
       -0.9862386 1.1150807 -0.9413575 0.5884289
000270 74 16 bc 3a 41 50 6f 3e dd f7 95 3f 23 46 80 40
       0.0014349953 0.23370458 1.1716267 4.0085616
000280 9d eb 4b be 97 e8 4f 3e 8b 06 e9 3c 64 1f 83 bd
       -0.19914098 0.2030357 0.028445503 -0.06402472
000290 b3 16 e7 3d 73 c8 45 bd 47 4d 5e 3e 58 51 5c be
       0.112836264 -0.048286866 0.21709166 -0.21515405
0002a0 7e cf 51 3f d2 a3 c7 3e ce 5f fe 3e d6 f5 81 3f
       0.8195723 0.38992172 0.49682468 1.0153148
0002b0 bd 6c 56 be ed d0 b3 3e 14 19 3b be 2d 70 95 3c
       -0.20939918 0.35120335 -0.18271285 0.018241966
0002c0 e2 37 df 3e 21 5f 5e 3c a6 fb 54 3e d8 2e a8 3f
       0.43597323 0.013572485 0.20799121 1.3139296
0002d0 6a 61 ad bd 7e 2d 8c 3e 70 94 5c 3f f6 3e a9 bf
       -0.08465846 0.27378458 0.86164 -1.3222339
0002e0 ba a0 cd 3f 99 cd 3e bf ff b7 9e 3e ed 8f a0 3e
       1.6064675 -0.7453247 0.30999753 0.31359807
0002f0 2e c4 eb 3e bc 4d 34 bf b1 cb 8a 3e 66 69 66 3e
       0.4604811 -0.70431113 0.2710853 0.22501144
000300 ed 5e dd bd bb c0 a3 be 9c cc 93 3e 5b 4f b4 3e
       -0.10809121 -0.3198298 0.28867042 0.35216793
000310 21 a2 9a 3e 3d 84 ea 3d 51 7d 18 be 37 1e c9 bc
       0.3020182 0.11451004 -0.14891554 -0.02455054
000320 4a 51 4f be bb d7 53 3e 03 24 31 bf db 09 01 3f
       -0.20245853 0.20687763 -0.69195575 0.50405663
000330 bb ce 57 3e b5 e6 bb bf 78 3e 37 be d3 97 0f bf
       0.21074955 -1.4679781 -0.17894924 -0.5609104
000340 97 9a 81 bf dd 79 c2 3f d8 ab 71 3e c9 e1 aa 3e
       -1.0125302 1.519344 0.2360071 0.33375385
000350 06 4f 64 3e 65 93 3c 3e 9a a6 02 3e f7 26 b0 3c
       0.2229577 0.18415602 0.12758866 0.021502955
000360 f7 41 81 bd 3e a0 17 bf 82 18 8b be 06 6e a6 be
       -0.0631141 -0.59228885 -0.27167135 -0.32505816
000370 3c c3 3c 3f 2f e7 c3 bf 60 ba e3 3e b7 58 ed 3e
       0.73735404 -1.5304927 0.4447813 0.46356747
000380 0e b3 34 bf fd f6 0b 3f 24 39 d9 be c4 b4 63 bd
       -0.70585716 0.5467375 -0.42426407 -0.055592313
000390 23 c7 9d be 6c 15 32 be 57 15 27 be 11 f4 07 bd
       -0.30815992 -0.17390984 -0.16316734 -0.033191744
0003a0 c4 d2 de 3d 90 0a 3b 3f 96 f4 8c bd 2a 45 a9 bd
       0.10880044 0.7306299 -0.068825886 -0.08265145
0003b0 a4 92 7d bf c6 89 8d bf b9 1a 1c 3e 9b 91 80 be
       -0.9905188 -1.105767 0.15244569 -0.25111088
0003c0 e4 5e 45 3e ab 35 96 be fd f8 17 3f eb 6f 48 3d
       0.19274479 -0.2933782 0.593643 0.04893486
0003d0 0c 17 32 be 78 1f af be 5e f9 1e 3d f4 59 22 bf
       -0.17391604 -0.34203696 0.038812034 -0.6341851
0003e0 df 69 38 3f 58 5a 4e 3f 87 0b 05 be ae bf 80 be
       0.72036546 0.80606604 -0.12992679 -0.2514624
0003f0 87 b8 bc 3c 9b 73 9d 3d 7e d0 02 3e 7c b6 a4 be
       0.023037208 0.076880656 0.12774846 -0.32170475

bias f4 [128]
000000 a8 01 b8 bf 37 f6 fb 3f d0 b9 c5 bf 70 1b 6e bf
       -1.4375505 1.9684514 -1.544733 -0.93010616
000010 df 11 dd bf 7a 59 af bf 34 9c a2 bf d8 75 73 bf
       -1.7271079 -1.3699181 -1.270392 -0.9510169
000020 91 23 04 c0 7e 26 de bf ed 07 99 bf 5e 38 fa bf
       -2.0646708 -1.7355497 -1.1955544 -1.9548452
000030 34 8a fc bf 60 34 8e be 7e 20 80 bf e5 2c e6 bf
       -1.9729676 -0.27774334 -1.0009916 -1.7982451
000040 7b de 61 3f ac 6f bb bf 95 64 48 bf 3a 00 0d 3f
       0.88230103 -1.4643455 -0.78278476 0.5507847
000050 85 88 ca 3d 46 3a 8a bf 7c 09 85 bf 1c 7c 80 bf
       0.0988932 -1.0799034 -1.0393519 -1.0037875
000060 19 86 29 bf f7 24 39 bf 41 cf 79 bf a6 23 7f 3c
       -0.6622024 -0.7232203 -0.9758187 0.015572464
000070 be e5 d6 bf e6 08 9c bf ce 64 17 c0 11 0d e2 bf
       -1.6788862 -1.2190216 -2.3655276 -1.7660238
000080 3c 0d c9 bf be bf 8c bf d9 a7 ad bf 17 c2 65 be
       -1.5707164 -1.0996015 -1.3566848 -0.2243732
000090 e3 6a ca bf ad e1 90 bf 4b 59 8e bf c9 14 ab bf
       -1.5813869 -1.1318871 -1.1121 -1.3365718
0000a0 0a 23 d9 bf 65 9b 5d 3e 6f 94 d7 bf 32 a7 0b c0
       -1.6963818 0.2164131 -1.6842173 -2.1820798
0000b0 89 84 77 bf 15 94 a4 3e c6 3d 29 3f 3f fe db 3e
       -0.9668661 0.32144228 0.66109884 0.42967412
0000c0 8b 7b 4e bf 95 bf b1 bf fc 23 cb bf dc 21 c2 bf
       -0.8065726 -1.3886591 -1.5870357 -1.5166583
0000d0 15 11 36 c0 2e b3 aa bf ca ea e3 3e 43 a4 22 bf
       -2.8447926 -1.3335931 0.44515067 -0.63531893
0000e0 63 b3 7b bf 1a 38 1e bf 76 d1 69 bc c8 09 17 3f
       -0.983206 -0.61804354 -0.014271131 0.589993
0000f0 8b 81 09 c0 04 dc 07 c0 27 a7 b4 bf 59 2c b3 3e
       -2.1485317 -2.1228037 -1.4113511 0.34994772
000100 20 63 28 bf fd 1e 0a 3f 48 67 c8 bf cd 5c 9e 3f
       -0.6577625 0.53953534 -1.5656519 1.237207
000110 9d 8e b5 bf 23 7c f8 bf ac fe a6 bf a1 4d a6 bf
       -1.4184147 -1.9412884 -1.304647 -1.299244
000120 00 9a 42 3f d1 02 69 bf 8b 71 de bf 72 45 7b bf
       0.76016235 -0.9101992 -1.73784 -0.9815284
000130 21 68 13 40 8d da b4 bd 78 df b2 bf 35 e2 0f c0
       2.3032305 -0.08830748 -1.3974447 -2.2481816
000140 ef f7 50 bf 8d 45 2d bf 2c 6b 08 c0 f4 c9 72 3f
       -0.81628317 -0.6768425 -2.1315413 0.94839406
000150 98 8b 99 bf 86 fd 52 bf 85 1e 71 bf 3a 30 b1 bf
       -1.1995726 -0.82418096 -0.94187194 -1.3842843
000160 37 e0 fc be 50 eb 93 bf a0 70 ea bf 73 2a 96 be
       -0.49389812 -1.1556187 -1.831562 -0.2932926
000170 49 72 ed be 86 e9 30 bd 8a d0 0d 3e b2 fa c6 bd
       -0.46376255 -0.043191455 0.13849083 -0.09715785
000180 2d 95 5a bf fc 84 d6 bd 89 6e 8f bf ff fb c1 bf
       -0.85383874 -0.104745835 -1.1205608 -1.5155028
000190 22 32 9a bf 7c 94 85 bf 4a 19 7a 3e bd bb c5 bf
       -1.2046549 -1.0435939 0.2442371 -1.5447918
0001a0 bc 97 8d be 8a b0 44 3b 02 5d 88 3f 72 30 ba bf
       -0.27654827 0.0030012452 1.0653384 -1.4546034
0001b0 51 90 b5 bf f3 65 dd bf 4b fb 2e bf 67 21 63 3d
       -1.4184667 -1.7296737 -0.6835219 0.055451777
0001c0 3e b5 70 bf d0 b5 1a c0 c3 f0 31 be 91 4a d7 bf
       -0.94026554 -2.417347 -0.17377 -1.6819631
0001d0 ef f8 6b 3e 7f 68 51 be ab f9 53 bf 02 8b 28 bf
       0.2304418 -0.20450018 -0.8280284 -0.6583711
0001e0 a4 93 d3 bf d3 79 aa be 16 76 1b c0 4a e7 01 c0
       -1.6529431 -0.3329607 -2.4290824 -2.0297418
0001f0 d8 4a 32 bf 0e 22 e8 bf f1 19 bf bf 2f 66 1c bf
       -0.6964545 -1.8135393 -1.4929792 -0.6109342

weight f4 [128, 128]
000000 a1 4a ab bd 8e 06 42 bd 8f 65 c7 bd 0f 30 92 bd
       -0.08363844 -0.047369532 -0.09736168 -0.07138073
000010 0c a9 d0 bd b8 a5 97 be 2c 07 df bd 0f cd d5 3c
       -0.10188493 -0.2961862 -0.1089004 0.026098756
000020 1b c6 81 bd 3c 39 19 be a0 21 1d bd c2 88 36 3c
       -0.06336614 -0.1496324 -0.038362145 0.011141004
000030 e9 4f a4 be 0d 3d e2 3c 23 b3 16 3d 25 a4 65 be
       -0.32092217 0.027617002 0.03679193 -0.22425897
000040 cd cd e6 bd 20 e3 dc 3c 91 b9 eb bd 46 72 cb 3c
       -0.11269722 0.02696377 -0.11510003 0.024834763
000050 cc 51 d1 bd 07 89 82 3c b0 e9 d7 bd f5 fd e8 bd
       -0.1022068 0.01593448 -0.10542619 -0.113765635
000060 31 2b 64 bc 00 87 16 bc 41 5f 66 be 5d 2e 6c 3c
       -0.013926313 -0.00918746 -0.22497274 0.014415351
000070 43 92 03 be cc 01 96 be 95 e6 22 be 3c 64 16 bd
       -0.12848763 -0.29298246 -0.15908273 -0.036716685
000080 13 37 87 bd 77 63 08 3d c0 74 d8 bd 48 4a 9a 3d
       -0.066023014 0.033297982 -0.10569143 0.07533699
000090 b2 92 0b 3d a1 26 b1 3b 04 c6 23 3c 55 8e b8 bd
       0.034075446 0.0054062163 0.009995941 -0.09011523
0000a0 66 e6 b4 bc 27 03 84 3d 77 51 8b be 53 5c 86 3d
       -0.022082519 0.06445914 -0.2721059 0.06560578
0000b0 68 84 55 be 3e 6b f2 bd 1f be 85 be bc b5 97 bd
       -0.2085129 -0.11836861 -0.26121613 -0.0740771
0000c0 98 4a 95 bd a0 f6 5f bb 09 10 eb 3d c8 c4 29 3d
       -0.07289618 -0.00341741 0.11477668 0.04144743
0000d0 55 5f 2b be 9e ba 77 be 5b 45 8b bc 66 5d f6 bd
       -0.16735585 -0.24192283 -0.017000845 -0.12029533
0000e0 3f 65 0c 3d 96 47 89 bd 72 7a ce bd ef 6d 43 be
       0.034276243 -0.06703107 -0.10081948 -0.19084905
0000f0 bc 75 aa 3b 8a 74 86 3d 90 a0 12 be 0c 07 d2 bc
       0.0052020233 0.06565197 -0.14319062 -0.025638126
000100 41 6c 28 be ce 46 49 3c 79 0c a3 bd 64 9f 92 be
       -0.16447546 0.012284948 -0.07961363 -0.2863723
000110 37 c6 83 be 27 96 d1 3c ab ae 01 bc 0e d3 3b 3d
       -0.25737163 0.025584294 -0.007915179 0.045855574
000120 6a b3 bb bb 5d b2 2f be e0 a4 9d bd 9a ec 85 bc
       -0.005728175 -0.17157884 -0.07697463 -0.016348172
000130 0d a1 7b 3c f3 2e 8c bd 8a 62 09 3d 87 c4 4f bd
       0.015358222 -0.06844892 0.03354124 -0.050724532
000140 62 a3 30 be 24 23 d5 bd c0 54 55 bd 8b 58 d3 3c
       -0.17249826 -0.10407093 -0.052082777 0.025799057
000150 c4 76 d2 bd 12 79 7c be 23 0d 48 be da 45 74 be
       -0.10276559 -0.2465556 -0.19536261 -0.23854771
000160 68 ac 5f bd f8 5b 9c be b1 9d ac bc 2a ef 89 bd
       -0.05460778 -0.30538917 -0.021071287 -0.0673507
000170 2d a7 6e be d4 c2 10 3d c2 37 b7 bd cb 34 41 bc
       -0.2330596 0.035342053 -0.08946182 -0.011792372
000180 77 10 c1 bd 1c 1e 9d be bf 95 06 bd 9f 17 4e be
       -0.094269685 -0.30687034 -0.032857653 -0.20126198
000190 35 d2 a8 bd 22 bf 3b be 24 62 57 bd de 90 3f bd
       -0.08243219 -0.1833463 -0.05258383 -0.046769015
0001a0 28 5f 16 bb 6f 5c 48 be 8a c6 70 bd 96 1b 08 3c
       -0.00229449 -0.1956651 -0.05878309 0.008307358
0001b0 25 90 60 3c 6b 64 9d 3b 7b 39 41 bd b5 2a ed bd
       0.013706242 0.0048032305 -0.04717396 -0.11580411
0001c0 1e cd 36 3b a0 82 91 3c 1f cd 4f 3d 36 9d 4e bd
       0.0027893255 0.017762482 0.050732728 -0.050442897
0001d0 d3 08 16 3c 83 c6 8c ba 13 f1 81 bd e3 a9 8a bd
       0.009157377 -0.0010740313 -0.063448094 -0.067706846
0001e0 5f 2e 05 3e 3e cc 3f bd ee 58 fa 3d 74 eb 90 bd
       0.1300597 -0.04682564 0.12223993 -0.07076159
0001f0 b6 dd 7d be 42 94 b2 bd 6d be 67 be 51 dc 79 3c
       -0.24791607 -0.08719684 -0.22631235 0.015250281
000200 0f b0 05 be 34 40 df bc 72 e3 00 be a2 35 bb bd
       -0.13055442 -0.027252294 -0.12586764 -0.09141089
000210 b6 7d cd 3c 9a aa f7 bc f1 ce 69 bd bb 73 89 bc
       0.025084358 -0.030232716 -0.05708212 -0.016778817
000220 be 7a be bd 8a 17 00 be e7 e4 47 bc ce 5f 00 be
       -0.09300755 -0.1250898 -0.012200571 -0.12536547
000230 0e 1a c5 3c 40 30 59 bc 45 2e 35 3b 9f 7a ca bc
       0.024060275 -0.013256133 0.0027645987 -0.024716673
000240 a2 b4 03 3c 1e d3 f5 bb 65 2f ed bc dd 69 20 bd
       0.008038672 -0.007501974 -0.028953264 -0.03916346
000250 08 e2 a1 3c bd 0f 22 bc ce 7c 40 39 7b e8 01 be
       0.0197611 -0.009891448 0.0001835704 -0.1268634
000260 84 db 6e 3c 0a f3 b3 bc 80 1b aa 3d e2 b0 f4 bd
       0.014578704 -0.021966476 0.083060265 -0.119478
000270 ae 45 b8 bd a8 bc 55 bd a2 d6 35 bc 5d 1e f7 3c
       -0.08997665 -0.05218187 -0.011098536 0.030165846
000280 fb 33 c4 bc 3c a3 18 be b5 f0 a5 bd 4a 27 3d bd
       -0.023950567 -0.14906019 -0.08102552 -0.046180047
000290 f7 29 03 be 06 f6 4d 3c c0 b3 5a bb a5 fd 6d bc
       -0.12808977 0.012570864 -0.00333713 -0.014525806
0002a0 ab 93 d2 3c fd e7 31 3d 0b 3e 0d bd 86 08 34 bd
       0.02570518 0.043434132 -0.034482997 -0.04395344
0002b0 5f c1 12 3c 3a 89 3b bd ad 5a 68 bd 46 34 b4 bd
       0.008957236 -0.045785166 -0.0567271 -0.08799033
0002c0 9c ca 93 bd a1 3b a1 bc 4e f1 b7 bd a7 a1 8d bd
       -0.07216379 -0.019681754 -0.08981572 -0.06915598
0002d0 dc b1 94 bd 20 5f 99 bd 30 b3 9e bb 1a 6a 08 3d
       -0.072604865 -0.07488847 -0.004843138 0.03330431
0002e0 93 8e 87 bc 76 e8 4f 3d 87 5f 0b bd 74 a3 9c bd
       -0.016547477 0.0507588 -0.03402665 -0.07648364
0002f0 52 4a 30 bd 79 64 25 be b2 73 4c 3c b8 d6 ec 3b
       -0.043039627 -0.16151609 0.012478756 0.007227745
000300 05 1f 2a bd 40 78 e6 3c 75 45 34 3c 17 cc ce bd
       -0.04153349 0.028133512 0.011002888 -0.10097521
000310 71 c2 a9 bd ea ff c1 3b 43 45 d4 3c ff 7c c7 bd
       -0.0828904 0.0059204 0.025911933 -0.09740638
000320 10 05 15 bc e4 02 11 be 2d 4c 20 bb 7f 4b 09 bd
       -0.009095445 -0.14161259 -0.0024459467 -0.033519264
000330 9f fc 45 be 1e 1d 72 bd 6e db b7 bd 5d f9 78 3c
       -0.19334649 -0.0591098 -0.089774 0.015196172
000340 ca 58 3b bd f8 24 61 3d 24 36 96 bd 8d 43 a3 bd
       -0.045738973 0.054966897 -0.07334545 -0.07971869
000350 91 7a 69 bc 2d 39 b8 3a e2 b0 b4 bc 29 7c e6 bc
       -0.0142504135 0.0014055126 -0.022057 -0.028135376
000360 f6 3e 0c 3d fa 05 14 3b 72 c4 0a 39 1b f3 06 bb
       0.03423973 0.002258657 0.00013233887 -0.002059168
000370 a8 40 d9 bc c7 d4 05 bd 62 26 89 3b 24 d1 91 bd
       -0.026520088 -0.032673623 0.004185484 -0.071199685
000380 ef f7 05 bd 4e 2f f6 bc bd 2f be 3c 93 c5 1b bd
       -0.03270715 -0.030051854 0.023216123 -0.03803022
000390 91 79 e5 bc cf b8 8f bd 4f cf c5 bd 47 7c 01 bd
       -0.028012069 -0.07017671 -0.096586816 -0.03161266
0003a0 f0 dc 96 bc a3 71 0a bd 3b 7e 01 be 1b db ca bb
       -0.018415898 -0.03379978 -0.1264581 -0.00619067
0003b0 ce ea b6 bc 82 e3 c3 3a 40 9a d8 bc 57 d7 09 be
       -0.02232876 0.0014945122 -0.02644074 -0.13461052
0003c0 17 cb 8a bd 00 99 93 bd 65 ef 26 bd 8d 7b e2 bd
       -0.067770176 -0.07206917 -0.04075565 -0.11058722
0003d0 67 09 84 bd 5e 81 b3 bd 24 9a 96 bd 51 5b 29 be
       -0.06447106 -0.08764909 -0.07353619 -0.1653874
0003e0 b5 7f 23 bd 8b 89 8f bd b3 a0 51 3c 02 cd 34 be
       -0.039916713 -0.07008656 0.012794661 -0.1765633
0003f0 3b 1c 89 bd a3 db 89 bc 26 89 b6 bd c2 ce 7b bd
       -0.06694838 -0.016828364 -0.08912878 -0.061476476

bias f4 [128]
000000 cd 87 a1 be 1e 26 bd bc 71 f4 50 3e dc 7e 37 3d
       -0.3154892 -0.023089465 0.20405747 0.044798717
000010 2d b5 da bd d1 40 63 bd b1 25 51 be b7 7a ba 3f
       -0.10679088 -0.055481736 -0.20424534 1.45687
000020 3d 4e 62 bd 80 cd 5d be 52 3c 95 3f 0c e9 21 3f
       -0.055250395 -0.21660423 1.1659033 0.63246226
000030 81 65 44 3f c4 5f 9a bd 9a fc fa bd 37 8a 8d bc
       0.7671738 -0.07537797 -0.12255211 -0.01727782
000040 a7 3b 05 bf 79 71 60 3f 99 2c 5a 3f 30 42 dc bd
       -0.5204415 0.87673146 0.852243 -0.10754812
000050 60 6b d8 bc 68 7b 28 3f 6a 24 95 3f 01 30 8a 3f
       -0.026418388 0.65813303 1.1651738 1.07959
000060 73 67 0d be e0 27 9a be c8 4a 0b bf 33 b2 4c bd
       -0.13808994 -0.30108547 -0.5441098 -0.04997463
000070 85 c8 d3 3f f9 4d 2f bd 6d f8 98 3f a0 05 84 3e
       1.6545569 -0.04279897 1.1950814 0.25785542
000080 0a 56 f0 bd 6d a4 e3 bd e7 9c 1b 3f c6 db 39 3f
       -0.11735161 -0.11115346 0.6078629 0.7260097
000090 c5 1d ea 3e 0b 70 8d bd 38 19 4e 3f cb 09 44 bd
       0.45725837 -0.06906136 0.8050723 -0.0478609
0000a0 6a b7 a9 be b7 ce 13 3f ec be 90 be 59 0f e2 be
       -0.33147746 0.57737297 -0.28270662 -0.44152334
0000b0 28 80 5d bd ba f0 70 bd 1a 6f 83 3d 20 fb 93 be
       -0.054077297 -0.058823325 0.06417675 -0.2890253
0000c0 cc ca 9f 3e f0 15 b7 3f 94 13 82 3e 48 85 c9 bd
       0.3120941 1.430357 0.25405562 -0.098398745
0000d0 fc ef df be 06 a1 05 40 c4 c2 16 bd 9d e8 b9 3e
       -0.4373778 2.087953 -0.036806837 0.36310282
0000e0 2f dc bf 3f ae b0 7f 3b 9e e1 3d bd 7f d7 93 3c
       1.498907 0.0039015221 -0.046357743 0.018047092
0000f0 3b f6 c6 be 26 2b f5 bd a7 6a 15 bd 34 62 b1 bd
       -0.38859734 -0.119711205 -0.036478665 -0.08661309
000100 06 16 f7 3e 17 b4 d2 3c 79 06 e4 bd 31 fc 83 3f
       0.4825899 0.02572064 -0.11134047 1.0311338
000110 b7 8b 2a 3f 58 8f 15 be 0f 66 09 be 41 0a a7 3e
       0.6661944 -0.14605463 -0.13417839 0.3262501
000120 b0 e8 d3 bd f1 9f ee 3d a2 dd a7 be 6c 43 d6 bb
       -0.10347116 0.116516 -0.3278628 -0.006538799
000130 bf f9 86 bd c1 db 24 be 77 82 11 bf 46 a0 a4 3f
       -0.06590604 -0.16099454 -0.568397 1.2861412
000140 82 d0 6f 3f 1f 73 c5 bd 1c dd ab 3e 26 69 b3 bc
       0.9367753 -0.09641098 0.3356713 -0.021900725
000150 5f d5 1f 3f 90 7a 90 bd 5d ce aa be 29 8a ac be
       0.62434953 -0.07054627 -0.33360568 -0.33699158
000160 fc d4 56 bf 68 07 95 be 1f 5c 26 3f 2e ca 7d be
       -0.8391874 -0.29107213 0.64984316 -0.24784157
000170 9f e7 5f be 85 47 b6 3c 84 84 97 bd 44 ea c9 bd
       -0.218657 0.0222509 -0.07398322 -0.09859136
000180 32 54 9a be 56 1d b6 bd 9e 77 da be d2 6d a4 3e
       -0.3014236 -0.08892314 -0.42669386 0.32115036
000190 be 7e 8c be 12 9f 1a 3f 0f 89 97 3f da 85 ba be
       -0.27440447 0.6039897 1.1838702 -0.36430246
0001a0 69 5a dd 3f 4f fe 6f 3e 24 38 9e be 27 ff 8c bd
       1.7293216 0.23436855 -0.30902207 -0.06884604
0001b0 32 51 e6 bd 6e 6b 39 bd cd fe a2 3e e4 15 cb 3e
       -0.112459555 -0.04526847 0.31835023 0.3966514
0001c0 f6 a1 55 3c 18 98 df bc c0 69 ae 3f 5b 8f 87 bc
       0.013039103 -0.027294204 1.3626022 -0.01654785
0001d0 b5 17 ac be 95 9a 3d 3f 53 9f 10 3f 65 74 ae bd
       -0.33611837 0.74064 0.5649311 -0.08518294
0001e0 53 42 9b 3c 24 76 cf be 4f 2d 87 be 42 ba b4 bd
       0.018952524 -0.40519822 -0.26401755 -0.08824588
0001f0 f8 ac 93 be 91 5f df 3f 7a 9a 35 bd 95 97 1c be
       -0.28842902 1.745104 -0.044336773 -0.15292199
